mountain-car-continious/actor.pth (torch, 533288 bytes, 7 tensors)

net.0.weight f4 [256, 2]
00000000: 6775 003e feca 573f bee9 1b3d f729 f83f
00000010: 69b9 09bf 37f0 85bf 3c07 a7bd 3c07 9abd
00000020: 6a7e a83e dcb0 ebbf e8b8 b6be e430 04c0
00000030: 9849 4dbf 8fd8 2ebf 20e2 a5be 14d4 273f
00000040: ec63 1e3f 740e 933d bdf8 813d 7962 d3bf
00000050: 80b5 2a3f e59d b93f 521c dc3e 5643 25be
00000060: 2836 1c3f 73d2 b83f 1c91 483e 6d97 13c0
00000070: 8e21 27bf 62ac 20bf fbf5 3d3e eb62 223f
00000080: 3650 fc3d d3d5 63c0 dc25 71bf ccf3 dabe
00000090: 222c 273f f965 ab3f ced6 2e3f 4f28 ec3f
000000a0: e32a 87be bcaa fcbf 5ed2 c3bc 17e0 0b40
000000b0: f336 40bd eab5 c13f 27b0 083f c799 2c3e
000000c0: d3c7 15be 9634 eebf b4ac 313f b30c ba3e
000000d0: aca6 dcbe 9795 b8bf 0159 f23e d4ec 0440
000000e0: d443 b7bd d2fb 6ec0 9da2 013d 5329 b8bf
000000f0: 2eb7 0c3e 6c7e 11bf 6c63 af3e 3cf9 8f3e
00000100: ef0c 9abd c446 333f bc93 c5be 89b6 733f
00000110: d727 243f 87d0 0c40 3e6f 83be d6d6 a3bf
00000120: 43b7 323f 3fb1 1040 e2e0 3e3e 7079 7bbf
00000130: b639 ed3e 9871 c53f 38e5 5e3d 1e01 e5be
00000140: 4465 153f fd94 083f 6054 eebe ba56 d1bf
00000150: 6f79 a83e 9014 b63e 8e55 60be 41ac 40be
00000160: fd99 afbd c602 b5bf 2ed3 a53d 94b0 ff3f
00000170: 5067 853c 7d1a e0bd 76d5 3d3e 7cd9 123f
00000180: a2f3 333f cf9a b03f 2970 0f3f 8466 e6bd
00000190: 1360 5a3e 3648 20c0 e092 033f b1f8 503f
000001a0: 6ead 6ebf ea77 eebe 6c84 04bf b0d1 653f
000001b0: 8118 083e 3dca 2a40 503e 733f f694 8e3f
000001c0: 76d9 b83d 9e16 73bf fe14 0dbf 9fd7 5dbf
000001d0: 9455 a9be b490 e3bf 580f ae3e 3dfa 0140
000001e0: ea24 963d aef8 3f3e fb88 f83d 1c53 243e
000001f0: 01b6 82bf 9bca 4c3f 2052 1c3f 829d 403d
00000200: 1a2d 413d f560 4fbd fb72 44be 0979 0e3f
00000210: 8224 a73d d114 a2bf 636c 34bf f770 cdbc
00000220: 32f8 8bbd 8508 19be 1314 5abf fce8 203f
00000230: 5d7d cfbe b963 afbe 352a a9be 92e9 f0bf
00000240: a082 59bf 21c1 b8bf 808d 463f e339 0d40
00000250: 6472 2bbf f065 e13f 3ff7 93be 39d1 7fbd
00000260: 9654 8a3e 0f50 90bf 1f79 003f 2234 ef3f
00000270: 2dfa 543f f122 a83f 010a d8bc e667 83bc
00000280: e760 14bf 1665 f0bf 24d8 a7bd 828b 5ec0
00000290: add2 82be d129 a03f 5988 1a3f 6ad8 ae3e
000002a0: aeb1 343f 7ee9 9f3f cbac 493e 0937 2bbe
000002b0: b4af 643e 25c3 2ec0 a16d 113f 6a94 b1be
000002c0: 8913 0f3f 7eb6 823e b464 1b3f 9837 80bf
000002d0: 0094 ba3e 5395 2840 f1e3 7ebe 8b06 b9bf
000002e0: 0919 7abd 1fd4 0bc0 3429 02bf 4226 c6bf
000002f0: 855c 1ebf 62de 97bb 4589 3cbf 269d e73f
00000300: abf8 7d3d cc9a 63bf aee2 40bc 5474 d5be
00000310: 0a93 493e 3a2a 39be 8dbc 2d3e fb85 babe
00000320: be83 6cbe 76f4 f6bf e888 193f cb60 fe3f
00000330: 6821 c03e 683c 843e d995 83be dbef e73f
00000340: f08a 623e c2a9 35c0 dc10 13bf e2e8 67bf
00000350: 9b09 24be 4dee e4bf 4d8d a8be 40e0 7fbd
00000360: 883b 13be 115f 0e3f b09c 2d3e ac79 4dbd
00000370: 6a2f 21bb 3e25 67bd 149b d0be d662 12c0
00000380: 2139 923e 7e70 3abe 5aca 4a3f e1e4 883f
00000390: b70d 4bbe 57dd aebe e4d7 063e ca4c a2be
000003a0: 2525 e23e 96f8 10bf 124e 4f3e 6a00 10c0
000003b0: dd5d f03e e256 c1be 9c9f 3d3e 6a0a 1f3f
000003c0: 3c38 423e da5b b23e 5ee5 1bbf 6ef1 3d3f
000003d0: cb07 abbe 8523 30c0 d6b3 75bf 8041 803f
000003e0: fe15 1fbf 2fc5 803e af9a 67bd 7180 e93f
000003f0: 0086 3c3e 5272 e83e fd1f ab3d c475 263e
0.12544785 0.84294116 0.03806471 1.9387807 -0.5379854 -1.0463933 -0.08155677 -0.07520911
0.32908946 -1.8413348 -0.35687947 -2.065484 -0.8019042 -0.6829919 -0.32399082 0.6555798
0.6187122 0.07180491 0.06346271 -1.6514426 0.666832 1.450131 0.42990357 -0.16138968
0.61020136 1.4439224 0.19586605 -2.3061173 -0.65285575 -0.62763035 0.18550865 0.63432187
0.123199865 -3.5599258 -0.94198394 -0.42764127 0.65301716 1.3390495 0.68296516 1.8449801
-0.26399907 -1.9739604 -0.023904022 2.1855524 -0.046927404 1.5133641 0.5339379 0.16855536
-0.14627008 -1.8609798 0.6940415 0.36337814 -0.4309591 -1.4420651 0.4733353 2.0769548
-0.08948484 -3.73412 0.03164922 -1.4387611 0.13741753 -0.5683353 0.3425554 0.28119838
-0.07521998 0.70029855 -0.38589275 0.952004 0.6412329 2.2002275 -0.2567081 -1.2799938
0.69810885 2.2608182 0.18640473 -0.98232174 0.46333092 1.5425291 0.05441782 -0.44727415
0.58357644 0.5335234 -0.46548748 -1.6354592 0.32905146 0.35562563 -0.21907637 -0.1881571
-0.08574293 -1.4141471 0.0809692 1.9975762 0.016284615 -0.10942552 0.1853846 0.57363105
0.7029363 1.3797244 0.5603052 -0.11250022 0.21325712 -2.5044074 0.5139599 0.8162947
-0.9323338 -0.46575862 -0.5176456 0.8977308 0.13290597 2.6685936 0.95016956 1.1139209
0.090258524 -0.94956386 -0.55110157 -0.86657137 -0.33073103 -1.7778535 0.3399608 2.0308983
0.073312595 0.18747208 0.12135502 0.16047329 -1.0211793 0.7999665 0.6106281 0.04702521
0.047162153 -0.050629575 -0.19184487 0.55653435 0.0816126 -1.2662603 -0.70477885 -0.02507828
-0.06834449 -0.14944656 -0.8518688 0.62855506 -0.40525332 -0.3425577 -0.33040014 -1.882128
-0.8496494 -1.4433938 0.7755966 2.2066581 -0.6697142 1.7609234 -0.2889957 -0.06245539
0.2701766 -1.1274432 0.50184816 1.8687785 0.8319424 1.3135663 -0.026371958 -0.016040754
-0.5796036 -1.8780849 -0.081955224 -3.477265 -0.25551358 1.2512761 0.603643 0.34149486
0.7058362 1.2493131 0.19694822 -0.16720213 0.2233265 -2.7306607 0.56807905 -0.34683543
0.55889183 0.25529855 0.60700536 -1.0016966 0.3644104 2.634114 -0.2489164 -1.4455122
-0.06105903 -2.1848218 -0.5084412 -1.5480425 -0.61859924 -0.0046346644 -0.73646957 1.8094833
0.062004726 -0.88908076 -0.011772795 -0.41690314 0.19684997 -0.18082514 0.16966458 -0.36430344
-0.2309713 -1.9293354 0.5997453 1.9873289 0.37525487 0.25827336 -0.25700262 1.8120073
0.22123313 -2.8384862 -0.574476 -0.90589726 -0.16019289 -1.7885224 -0.32920304 -0.06246972
-0.14378178 0.5561381 0.16954303 -0.050164863 -0.0024594911 -0.056432 -0.40743315 -2.2872825
0.2855921 -0.18206975 0.79215014 1.0694848 -0.1982945 -0.34153244 0.13168293 -0.3169921
0.44168964 -0.5662931 0.20244625 -2.2500253 0.46946612 -0.377616 0.18517917 0.62125266
0.18966764 0.34835702 -0.6089686 0.7419652 -0.33404383 -2.752168 -0.9597753 1.0019989
-0.6214293 0.2515044 -0.056544002 1.8242322 0.18410492 0.4539972 0.08355711 0.16255862

net.0.bias f4 [256]
00000000: 6e87 dc3e c080 5e3d 1404 da3e 2bef 34bf
00000010: 4290 f13e 01e1 1d3e f562 723a 7b64 11bf
00000020: 0cb9 e4be 98cc 193e 40f6 b63e 165e 4cbe
00000030: d946 9f3e 8d9f ed3d 821b 823e 5ea4 493e
00000040: a8c6 2cbd d713 c73b a09e bb3e af29 053e
00000050: 90b6 be3e 3920 573c 7b3b 943e 9c4a 8bbe
00000060: 627d cd3d f460 2cbf 892b 563e aa6b 053f
00000070: 751c 073e 7207 973e f376 27bf d207 ddbe
00000080: cc0a 88be 3c13 b9bd 7350 e23d dd94 7e3e
00000090: 0ee8 453e 0e0e 553e 0d24 8c3e 6350 eabe
000000a0: 5992 eabe 2282 d23e 0370 963e 781b 1dbf
000000b0: 2a39 bc3e 304f db3d 7178 23bf af66 03bf
000000c0: 7359 ad3e bbc4 b5be 00fd f93d 6402 8a3e
000000d0: f96e 3fbe c22e 19be d230 633e 1778 193e
000000e0: 69bb d33d 55d1 673e 9c76 6a3e 52d5 793d
000000f0: f7b9 86bd 6058 9abe 16e8 78bd 5c10 a13e
00000100: 87d8 2fbf c610 25bf 602b 9a3e d176 033d
00000110: 854f 08bf 65bc f0be edcc 2dbf 7d94 023f
00000120: 975a 03bf 3a0b 013e 636d ab3d afd9 f5be
00000130: 329e cc3e 6500 0c3f 1139 643d 4946 a5be
00000140: 892e 4b3e af59 213e 12a5 9f3e ab52 b73d
00000150: 92d3 ca3e 3e53 593e 7ba2 063e 5770 c8be
00000160: 3093 23bf 2298 513e 5442 d03e 1a76 b13e
00000170: 8792 143e bb05 c1be 1f3f 243c 9093 9dbe
00000180: 5c6d c03e 433b ffbe 9aaf 0dbf 5e55 27bf
00000190: 8435 fb3e 44b9 8a3e 4fcc ef3e ce73 3a3e
000001a0: a847 c13d 8629 dc3e 146d a83e 7db0 d7be
000001b0: 212c f2be c4c8 1cbf 3537 0abd cbf0 a73e
000001c0: 2339 4bbe 1b58 f23d b351 25bf c7fd acbe
000001d0: 4f9e d33e a2f5 ec3d b30a ff3e 09e3 33bf
000001e0: 3559 e3be 8016 6c3d 0f21 7b3e a893 373d
000001f0: fea2 c13b 8850 6e3d ef65 b73e f9f6 f53e
00000200: 27b6 0a3f d3a1 80be ba18 5c3e 59f6 c2be
00000210: a7ef 37be 9834 703e dcf6 9f3d 5008 983d
00000220: c0de 15bf a073 a03d 9614 ccbe 9265 49bd
00000230: 012c c0bd 5c42 b83e dc00 efbe f8d5 16bf
00000240: 30e1 a9bd 3088 aabe 7393 da3e 09c6 14be
00000250: 3b81 9ebe 3b1b c13d 7816 653e fd7a c63e
00000260: ed63 b8bd a9ca cb3e 31a3 aabd 0fc1 a6bd
00000270: a258 ca3d c91d d33e b96c 4dbe f0c1 e43e
00000280: 6b42 df3d ebaa 57be 6668 513e 4eed e23d
00000290: fe3f 7b3d a851 2bbf 5c67 00be b27d d23e
000002a0: 14ca 0cbf dda6 083e 9da7 1e3e a2a8 d33e
000002b0: 93c0 ed3e bbd6 e7be bf6d ddbe f3e7 cd3d
000002c0: ddfc e53d 8563 33bf f3f3 6a3d b470 c83d
000002d0: 1d92 ec3d 1786 9dbe b225 d23e 0228 0f3e
000002e0: 2a2f 0a3f fe14 ab3e 4b40 003f 162a 033e
000002f0: bb2e be3d 6e4a a93e 482b e5be b2bc a63e
00000300: cb0d 473d f150 0d3f df30 bdbe 3473 903e
00000310: 59ad a73e 3840 dc3d b22a 01bc 7105 88bd
00000320: a7f8 e93e d5a3 ce3e f966 97be 8167 253e
00000330: 7af8 d03e fa7d 623e 3465 0dbe aab6 a2be
00000340: cdd0 56bc 7246 6a3d 730d dbbe f9da ec3d
00000350: 45f3 3f3c b908 c53e 46b4 efbd 7c36 db3e
00000360: f9a0 d33e b66a f3bd bfed ed3c d3ca 3c3e
00000370: dfc3 653d ae31 733e 8555 863e 79c7 053f
00000380: 2562 543e fe31 893e 2ace 34bf 3b16 1bbd
00000390: a9f8 01bf 81cb 25bf 9888 b7be a49b 8fbe
000003a0: 43b7 bf3e 7332 13bf 76b7 8abe 8134 41be
000003b0: 58af 803e defd bf3e 3ed9 1b3e c6fa b2be
000003c0: 8ebe c13e 976b 0a3f 008d 0bbf d2b8 24be
000003d0: 96ce 28bf cd6b 8bbe e330 8d3e 06de 553e
000003e0: 9cdf be3d 7389 08bf bf92 b23d 5584 2bbf
000003f0: 9880 c6be b216 f6be ae1c 20be f9c4 78be
0.43072075 0.054322004 0.42581236 -0.7067744 0.47180372 0.15417863 0.0009246313 -0.56793946
-0.4467243 0.15019453 0.3573475 -0.19957766 0.3110874 0.116026975 0.25411612 0.19691607
-0.04218164 0.006075363 0.3664446 0.13004182 0.3724866 0.013130241 0.2895163 -0.2720536
0.100336805 -0.6733544 0.20915045 0.5211741 0.13194449 0.29497868 -0.6541588 -0.4317003
-0.26570737 -0.09036872 0.11050501 0.24861474 0.19326803 0.20806143 0.27371255 -0.45764455
-0.4581478 0.41114908 0.29382333 -0.6137004 0.36762363 0.10708463 -0.63855654 -0.5132856
0.33857307 -0.35501656 0.12206459 0.2695495 -0.18694676 -0.14959243 0.22186592 0.14987217
0.1033848 0.22638448 0.22896808 0.060994454 -0.06578439 -0.3014555 -0.06076821 0.31457794
-0.6868977 -0.6447872 0.30111217 0.032095734 -0.5324634 -0.47018734 -0.67890817 0.51007825
-0.51310104 0.12601939 0.08370473 -0.48017642 0.39964443 0.546881 0.055718485 -0.32280186
0.1984197 0.15756868 0.31180626 0.089513145 0.3961454 0.2122316 0.13147919 -0.39148208
-0.63896465 0.2046819 0.40675604 0.34660417 0.14509021 -0.37699685 0.010024815 -0.30776644
0.37583435 -0.498499 -0.5534607 -0.65364635 0.49064267 0.2709447 0.46835563 0.18208238
0.094374955 0.4300043 0.3289572 -0.42126837 -0.47299293 -0.61243844 -0.033744056 0.32800898
-0.19846015 0.11833211 -0.6457779 -0.33787367 0.41331717 0.11570288 0.4981285 -0.70268303
-0.44403997 0.057638645 0.2452433 0.04481855 0.0059093228 0.05818227 0.35819957 0.48039988
0.5418419 -0.25123462 0.21493807 -0.38078573 -0.17962514 0.23457563 0.078107566 0.074234605
-0.58543015 0.07834554 -0.39859456 -0.04916913 -0.09383393 0.35988128 -0.46680343 -0.5892024
-0.08294904 -0.33307028 0.4269062 -0.1452867 -0.3095797 0.09429022 0.22371852 0.38765708
-0.09003434 0.39803055 -0.083319075 -0.08142292 0.098801866 0.41233662 -0.20061006 0.44679213
0.1090134 -0.21061294 0.20449981 0.110804185 0.061340325 -0.6692147 -0.12539428 0.41111523
-0.54995847 0.13344903 0.15493627 0.41339594 0.46435985 -0.45281014 -0.43247792 0.100540064
0.112298705 -0.7007373 0.057361554 0.097871214 0.115513064 -0.30766365 0.41044384 0.13980106
0.53978217 0.33414453 0.50098103 0.12809023 0.09286257 0.33064598 -0.44759583 0.32565838
0.04859714 0.5520163 -0.36951348 0.28212893 0.3274944 0.10754436 -0.0078837145 -0.06641663
0.4569752 0.4035937 -0.2957075 0.16152765 0.40814573 0.22118369 -0.13808137 -0.31779987
-0.013111305 0.057196088 -0.42783698 0.11565203 0.011715715 0.38483217 -0.11704306 0.42815006
0.4133375 -0.11885588 0.02904403 0.18436746 0.056095 0.2374942 0.2623712 0.52257496
0.20740564 0.26795954 -0.7062708 -0.037862998 -0.5077005 -0.6476365 -0.358464 -0.28048432
0.37444505 -0.57498854 -0.27093095 -0.18867685 0.25133777 0.37498373 0.1521959 -0.3495695
0.37840694 0.5407042 -0.54512024 -0.16086128 -0.65940225 -0.27230683 0.2757636 0.20885476
0.09319994 -0.5333473 0.08719396 -0.669988 -0.38769984 -0.4806419 -0.1563594 -0.24293889

net.2.weight f4 [256, 256]
00000000: 2217 c5bb 6c3f 96bd c3e3 b4bc 484d 8c3c
00000010: b36d 54bd 4c66 9abd 38a3 1a3d 20e3 683d
00000020: 78a8 3e3c ef33 30bd 35af 91bd 8092 70bb
00000030: 6382 a4bb 37c3 0dbd 0a65 173d fd54 1e3c
00000040: f635 d1bd c9e0 803d 6a17 60bd ddbe 0cbd
00000050: 8428 d2bc d5f7 2dbd 0824 75bc 14e3 0ebd
00000060: aa8d 7ebd 1a19 733d cc1c 88bd dc46 81bd
00000070: 8e4a 45bd 4676 bebd 4840 9e3c 48b1 0abd
00000080: ae07 7abd 598f 253c a512 6ebd 0f12 89bd
00000090: c6a9 2a3c 741e 64bd a5b2 5cbc 4052 ad3a
000000a0: b851 003c c1ce 0cbd 3358 79bd 925e 7b3d
000000b0: ce61 7bbd 2f94 103c 008d 70bd d63d 3e3d
000000c0: 5ac6 3bbd cc95 c03c 894b 21bd 3d39 8fbd
000000d0: cb5a 583c 0dbb b33d 1c0e 26bd a3d9 a7bb
000000e0: 029c eabc 015f 32bd 2a23 f03b 2766 33bd
000000f0: 3ce8 14bd 800a 143a 539e 343c d195 6dbd
00000100: 98df 273c 2824 fabc 7e1f 38bd 90bd 9f3b
00000110: d082 303c bada df3d 9812 e33c 1065 26bd
00000120: 5618 ab3b 4a8e 3dbd 41fc 41bd 80c4 673c
00000130: 847e 3dbd 7efc dfbc 46a1 9ebd 8c2e 143d
00000140: 3b13 b5bb f842 8dbc 5d99 3c3c 2ccb b0bd
00000150: 4436 64bd cda4 2cbd ab5d eebc b6b3 7d3d
00000160: 94e4 6dbd a166 353c 26c7 31bc b023 74bc
00000170: 7879 89bd 803d 4e3b 8ece 323d 8c0d 7f3c
00000180: 5121 8f3b 1a21 36bd 0095 093d 9044 6abd
00000190: 0ff7 f33b a316 c5bc da6d b43c 7ec0 fc3b
000001a0: 70fd 06bd df79 03bc 004f acbd 3ed0 063d
000001b0: 762f 79bd 104e e23c 1585 723c 8067 a0bd
000001c0: e8a4 2b3d bd8f bfba 1886 163c c6e7 273d
000001d0: 9526 5cbd 658a c0bd 8de4 3d3c 1aa4 273d
000001e0: 1048 7c3c 3157 d13b 3790 b6bd b30e 173d
000001f0: e085 15bd bd72 203d 3c55 83bd 8947 bebd
00000200: ef53 83bd 687a 693d aacb 85bd f48d 9b3d
00000210: 7087 673c 7afe 16bd e526 78bd e42f 06bd
00000220: fc23 7ebd 66c6 d9bb 26a7 3a3d f5bc 9f3d
00000230: 4f88 d53c 09ae 1fbd 5dbe 0e3d 1273 43bd
00000240: 0af9 1b3d 00cb 2bbd 8103 83bd 181e aabb
00000250: a501 e33d 863b 8f3c 9edc a7bc cd04 21bd
00000260: e672 923d 4e9f 1dbd 6424 f93c f511 893d
00000270: c9e9 f5bc 8ffc 3ebd 444d 4dbd 303b c8bd
00000280: 45be eb3a 70d0 013d 83ba 49bd 115b 41bd
00000290: c02e 87bc 760e 18bd 6728 ebbd 8c76 c3bb
000002a0: 7485 e63c 2324 e9bc 9002 80bc 17af c03b
000002b0: 7d1a e2bc 5eb8 0bbd e0a4 553c 3121 853c
000002c0: c2ee febd 30c8 84bb f377 973c b082 88bd
000002d0: 2bd6 9ebb 02f8 273b e74d d0bc 7f19 ca3c
000002e0: 1ba1 aebd 1191 c2bd 1332 fdbc f056 75bd
000002f0: 2596 bd3c 4c21 023c 3495 543b 987c 163c
00000300: 2725 12be 7022 a3bc fcfd cfbc 44fc 4abc
00000310: 5ca1 82bd 51b3 a5bd b9a0 afbb 81c2 08bd
00000320: 03c4 0cbd 7bbf 8ebc bf04 62bd 6ea7 88bd
00000330: 027d 8cbd c3a0 b03c bab7 6b3d 7075 05bc
00000340: 2991 94bd e4d7 ad3b 1619 7f3d d6a7 4ebd
00000350: a53e cabc 6f4d 76bd 0853 38bd 83d1 2cbd
00000360: 7e5a d2bb e024 7c3b 0def 02bc 39e6 1ebd
00000370: 5278 523d da41 c4bd 4625 71bd 1d8e ac3b
00000380: 6590 81bc 1884 acbd 0c4a 15bd bc76 a6bc
00000390: a8e7 f6bc 70b5 a2bb 20fe 99bb e045 0bbc
000003a0: c922 c3bd c8a0 0abc 0a47 c63d d0d7 35bd
000003b0: 890f 3e3c 2df4 c9bd d83f 89bc 6023 99bc
000003c0: 7410 aa3c 1abb 84bc 00fa 47ba 5a16 503d
000003d0: f6d3 2d3d 6c8e a13c 7595 a7bd 64a9 55bd
000003e0: bce9 9dbd e816 12bd ad15 cdbc 006d c8b9
000003f0: f4ae 2dbd 3a6a 703d 306f e23c 387d 473d
-0.0060147205 -0.073363155 -0.022081262 0.017126694 -0.05186243 -0.07539043 0.037753314 0.05685723
0.011636846 -0.043018278 -0.07113496 -0.0036708415 -0.005020426 -0.03461 0.036961593 0.0096638175
-0.1021537 0.06292874 -0.05470983 -0.03436171 -0.025654085 -0.04247268 -0.014962204 -0.034884527
-0.06214682 0.05935011 -0.066461176 -0.063123435 -0.048166804 -0.092999026 0.019317761 -0.033860475
-0.06104248 0.0101049775 -0.05812325 -0.066928975 0.010416454 -0.055693105 -0.013470327 0.0013223365
0.007831983 -0.034376863 -0.06087513 0.061369486 -0.06137257 0.008824392 -0.058728218 0.04644569
-0.04584346 0.023508929 -0.039378677 -0.06993339 0.0132052405 0.087759115 -0.0405408 -0.00512238
-0.028638843 -0.043547634 0.0073284106 -0.043798592 -0.03635429 0.00056473166 0.011024076 -0.058004204
0.01024618 -0.030534819 -0.04495191 0.0048748925 0.010773376 0.10930391 0.027718827 -0.040623724
0.005221407 -0.046278276 -0.04735971 0.01414597 -0.046263233 -0.027342077 -0.07745604 0.036177203
-0.005525974 -0.017243847 0.011511174 -0.08632502 -0.055715814 -0.042149354 -0.029097399 0.061938964
-0.058079317 0.011071832 -0.010850703 -0.014901087 -0.067126215 0.0031469762 0.043654017 0.015567195
0.0043679853 -0.04446516 0.033589363 -0.057194293 0.007445223 -0.024058646 0.022025038 0.0077133765
-0.03295654 -0.008024662 -0.084135056 0.03291344 -0.060836278 0.027625114 0.014802237 -0.07832241
0.041905314 -0.0014614981 0.009187244 0.04099252 -0.053747732 -0.09401397 0.011590135 0.040927984
0.01539804 0.006388568 -0.089142255 0.036879253 -0.036504626 0.039171923 -0.064127415 -0.09290988
-0.064124934 0.0570015 -0.065329865 0.07595435 0.014131412 -0.03686378 -0.060583968 -0.032760516
-0.062046036 -0.0066459654 0.04556956 0.077997126 0.026065974 -0.038984332 0.034849513 -0.04771716
0.0380793 -0.041941643 -0.06397153 -0.0051915757 0.11084298 0.017484438 -0.02049094 -0.03931122
0.071508214 -0.038482003 0.03041286 0.06692878 -0.030018704 -0.046627577 -0.050122514 -0.09776914
0.0017985782 0.031692922 -0.049250137 -0.04720599 -0.016501784 -0.037123166 -0.114823155 -0.0059650596
0.028139807 -0.028459614 -0.015626222 0.0058802473 -0.027600521 -0.034111373 0.013039798 0.016251178
-0.12447883 -0.0040521845 0.018489813 -0.06665552 -0.004847308 0.0025630002 -0.025427772 0.02467036
-0.08526822 -0.095003255 -0.030907666 -0.059897363 0.023142884 0.007942509 0.0032437565 0.009184979
-0.14271985 -0.019913882 -0.025389664 -0.012389246 -0.06378433 -0.080908425 -0.005359736 -0.03338862
-0.03436662 -0.01742529 -0.055180307 -0.0667256 -0.06859781 0.021561032 0.057548262 -0.008145675
-0.072542496 0.005305277 0.062279783 -0.05045303 -0.024688074 -0.06013244 -0.04500106 -0.042191993
-0.006419479 0.0038474128 -0.007991564 -0.038793776 0.051384278 -0.09582873 -0.058873437 0.0052659647
-0.015815923 -0.084236324 -0.03644757 -0.020320289 -0.03013976 -0.0049654767 -0.0046994835 -0.008500546
-0.09528119 -0.008461185 0.096815184 -0.044395268 0.011600384 -0.09861026 -0.016754076 -0.018693626
0.020759799 -0.016202498 -0.00076285005 0.050802566 0.04243847 0.019721232 -0.081828035 -0.052163497
-0.07710597 -0.035666376 -0.02503475 -0.00038228184 -0.042403176 0.058695056 0.027640909 0.048703402

net.2.bias f4 [256]
00000000: 78c7 69bc b42d 483d 8cba 173d 8146 b03b
00000010: 36e2 63bd 6cd9 a3bc f7c8 64bd 216d af3c
00000020: e836 083d 8ea6 85bd 0dff d83c a438 0bbd
00000030: 06e8 1a3a 4084 903b 8f65 143d 562e 023e
00000040: a2f4 36bd 340c 0fbd 263e 2cbd 5a35 133d
00000050: 71d5 a8bd 3f26 f4bd aa9c d03c 8f4e c4bc
00000060: cf8b 023b 3fe1 4a3a 926a 1cbc 3396 1d3e
00000070: 0470 673d af4b d5bc 0557 be3c 2348 213d
00000080: abd9 55bd dc9d 30bd 24a2 463c 43c2 893c
00000090: 180c 503d e962 9a3c a096 f53c 2545 663b
000000a0: 041e b1bc b17b 02bd 10b9 64bc a7c2 373d
000000b0: d6db 0fbc 4427 90bd f8fb 48bd 30b6 b6bb
000000c0: 09b0 cebc ba41 00bc a249 b83c 5e3b 1bbc
000000d0: 1696 1abd 2027 33bd 5095 30bd 705d 253d
000000e0: a943 8dbb b5be adbd 008a 6f39 c9db 16bc
000000f0: 87ac 9cbc ee1b c1bc 4c86 81bc e1d2 313c
00000100: 9cbb 80bc 326b 7bbd 6c43 113d 51b8 24bd
00000110: cd47 07bd d01b f6bb 94b3 483d b8ea 243d
00000120: f202 833d d4c3 54bd 9ba2 b93b 70b3 00bd
00000130: ac85 d63d 0070 993c fa81 413a 1ce4 c93a
00000140: 8046 8abd 1176 e93c 1d07 31bd aa91 eebb
00000150: bbc5 2abc b559 183e 9610 8bbd fb2f 0b3b
00000160: 824e 49bc 7f03 033d ef35 873d 20ac 19bd
00000170: bb47 54bd 78e6 723c ee42 d73a 8b95 93bb
00000180: d1a1 543d 22c0 57bd 11fe 9fbd 154a 68bd
00000190: 008b 80bc 5836 c63b 66ac 2cbd 25c4 ba3c
000001a0: d7d5 37bd d048 2cbd f836 13bc ffca 393d
000001b0: 69bb 79bd 5ebb f9bc 6663 503c 725c 113d
000001c0: 2adc 6dbd 9ede 563d 4810 9fbc 3436 e0bc
000001d0: 56ef 473b 4893 483d 9a01 413c 0281 82b9
000001e0: 2074 1dbc 2683 59bc 2b44 843c df32 293d
000001f0: 443f 3cbd f8c0 24bd 44f6 f03b b984 203d
00000200: cc7d 2c3d 6753 a63b f056 57bd 7c53 28bd
00000210: dc61 65bc f015 eabb 1322 a5bc 242c fc3c
00000220: d00b 243d 46a3 95bd 1ca9 343d 8c7c 4ebd
00000230: a069 88bc a084 073d 9b29 b1bc 8131 d3bc
00000240: b8f2 79bc eb30 14bd da02 323c 8f8a 54bd
00000250: 81a2 fcbc c233 c8bc f6f9 65bd e86a d8b9
00000260: a4c6 04bd 9fe7 3f3c ae69 023d 822c 8bbd
00000270: 125c 373d 7ed9 59bd fb05 84bd 331d 1fbd
00000280: dbb4 6ebc f28e 0c3d 97d3 1b3e aeeb 4cbd
00000290: 331e f6bc dd48 a7bc f389 90bd b9ff a3bc
000002a0: cd7a 22bc de80 6cbd fcfa 19bd ec51 38bd
000002b0: 9de2 bfbd 225b 9ebc 76e1 bbbc dde4 483d
000002c0: 9b39 58bd 868b 2d3d 02cb aebb a795 29bd
000002d0: 4689 7cbd 3245 5ebd 8c17 003b 3d32 ad3c
000002e0: f0f9 48bd c77b 413d 54a9 003d a007 98bd
000002f0: 9e2c 093e 1421 b3bb c6b3 003d 32e0 5abd
00000300: d7b9 bbbd f5d2 53bd de36 70bd 7994 d5ba
00000310: c083 48bd 6668 1abd 251f 7cbd 0101 08bd
00000320: de1e 433d d4c0 b13c bbf2 32bd 3598 fcbc
00000330: 2f92 6cbc 869f 103b 6658 98bc 604b d5bc
00000340: 0c19 51bc 9968 83bd 8610 14bd 4a98 333d
00000350: 64a6 e63c d0e7 cb3c 7d8f bfba 4d73 a0bc
00000360: 619c 81bd 7079 bbbc b3df aa3c 7cb1 e7bb
00000370: fcfd 973c 8914 31bd 23f1 dd3b 270a 2c3c
00000380: 009b 39bb 8abc 033d 6859 30bd 9d66 8dbc
00000390: 0702 46bd a672 333d 6c34 1f3c 2887 7ebc
000003a0: d74c 343d 6c8f b03c 1a50 1d3d be10 7cbd
000003b0: 90c4 c7bb 487e f4bc 775c e63c f2e5 17bd
000003c0: c552 a7bd cd9a bc3c 931c 2c3d db77 5c3d
000003d0: 7896 04bd da49 953c 3824 c53b 2f78 153d
000003e0: 380e 36bc 09b6 2e3d de64 95bc 1f34 cebc
000003f0: 4424 e63c 46c3 0bbd bbb9 833d 69de 1b3d
-0.014268748 0.04887171 0.03704314 0.0053794985 -0.055635653 -0.020001136 -0.055855718 0.021414341
0.033255488 -0.065259084 0.026488805 -0.033989564 0.0005909208 0.0044102967 0.036229666 0.12712988
-0.044666894 -0.034923747 -0.042051457 0.035939552 -0.08243836 -0.11921357 0.025465328 -0.02396324
0.0019919758 0.0007739253 -0.009546893 0.15389328 0.05650331 -0.026037065 0.023234854 0.039375436
-0.052209537 -0.043119296 0.012123618 0.016816264 0.050792783 0.018845992 0.02997905 0.0035136428
-0.021620758 -0.031856243 -0.013960138 0.04486337 -0.00878044 -0.07038739 -0.04906842 -0.0055759177
-0.025230424 -0.00782817 0.022496048 -0.009474603 -0.03774079 -0.043738484 -0.043111145 0.040372312
-0.0043110442 -0.0848364 0.00022844225 -0.009207674 -0.019125236 -0.023572888 -0.015811108 0.0108535
-0.01571446 -0.061381526 0.03546469 -0.04021484 -0.03302746 -0.0075106397 0.048999384 0.040262908
0.06397046 -0.05194457 0.005665136 -0.031421125 0.10474715 0.018730164 0.0007381734 0.0015403065
-0.06751728 0.028498681 -0.043219674 -0.007280548 -0.010423119 0.1487797 -0.06790273 0.0021238315
-0.012286784 0.031985756 0.06602084 -0.037517667 -0.05182622 0.014825456 0.0016423145 -0.004503911
0.051912133 -0.052673467 -0.07812131 -0.056711275 -0.01569128 0.0060489587 -0.0421566 0.022798607
-0.044881668 -0.042061627 -0.008985274 0.045359608 -0.060969744 -0.030484851 0.012719011 0.035488553
-0.058071293 0.052458398 -0.019416943 -0.027369596 0.0030507646 0.048968583 0.011780167 -0.0002489165
-0.009610206 -0.013275897 0.016145786 0.04130828 -0.045958772 -0.04022309 0.007353576 0.039189074
0.042112157 0.0050758603 -0.052573144 -0.041095242 -0.014000382 -0.0071437284 -0.02015785 0.030782767
0.040050328 -0.073065326 0.044106588 -0.050411746 -0.016651928 0.033085465 -0.021626284 -0.025780441
-0.015255623 -0.036179464 0.010864938 -0.051889952 -0.030839207 -0.024438743 -0.056146584 -0.00041278382
-0.032416 0.011712938 0.031839065 -0.067955986 0.04476554 -0.053185932 -0.06446453 -0.038846206
-0.0145694865 0.03431601 0.15217434 -0.05002945 -0.030043697 -0.020420486 -0.07057562 -0.020019399
-0.009916973 -0.057740085 -0.037592873 -0.045 -0.09369395 -0.019330565 -0.022934657 0.049046386
-0.05278931 0.042369388 -0.005334259 -0.041402485 -0.06165435 -0.05426521 0.0019545285 0.02114212
-0.049066484 0.047237184 0.031411484 -0.07423329 0.13395926 -0.0054665897 0.031421445 -0.053436466
-0.091663055 -0.051714856 -0.058646075 -0.0016294859 -0.04895377 -0.03769722 -0.06155314 -0.033204082
0.04763686 0.021698393 -0.043688517 -0.030834297 -0.01443915 0.002206774 -0.01859684 -0.026036918
-0.012762319 -0.06416435 -0.03614857 0.043846406 0.028155513 0.02489081 -0.0014614906 -0.01958623
-0.06328655 -0.022885054 0.020858621 -0.0070707183 0.018553726 -0.043232474 0.0067731305 0.010500467
-0.0028321147 0.032162227 -0.043054014 -0.017260844 -0.048341777 0.04381051 0.009717088 -0.015535153
0.044018593 0.021552764 0.03840647 -0.061539404 -0.00609643 -0.029845372 0.028120263 -0.037084527
-0.08170084 0.023023034 0.042019438 0.05382524 -0.03237006 0.018223692 0.0060162805 0.03649157
-0.011111788 0.04265407 -0.018236574 -0.025171338 0.028093465 -0.034121774 0.0643191 0.038053904

net.4.weight f4 [256, 256]
00000000: 2af3 10bd f425 45bd bc41 3f3d fc0f 2bbd
00000010: 00d0 89b7 4b32 393d 18c6 633d ed45 5f3d
00000020: b0da fb3c 793c d7bd 4a69 5ebd aeb2 c33d
00000030: d006 80bc 1244 00bd 7ffb 053c 3f46 b4bd
00000040: 2ffc 12ba 8464 0fbd 3e16 33bd 9ae5 463d
00000050: 1009 9cbb b675 68bd aeea 5b3d b992 b3bc
00000060: 0055 7b3d e645 c5bc 55b2 fb3c 8dc8 263c
00000070: 68a5 1b3d a286 6e39 31b6 a8bd e890 b9bc
00000080: 68f1 1b3c 971e 613a e9d3 40bd f0b7 173c
00000090: 7a2f 10bd 0df8 c03c c8b0 1e3d 45b6 e43c
000000a0: b648 98bc a487 b93c 10ef bf3c c05a 33bb
000000b0: 24de 8abc 3fd9 543b 6897 aa3c 9812 c8bc
000000c0: d553 b4bc 7a94 3dbd f070 08be 822f 95bd
000000d0: ea38 20bd 894b 6cbd 13c9 1e3d 75af a83d
000000e0: d67f 9d3b 9455 9e3c 8802 8e3c 8366 cfbc
000000f0: d8d8 503d 33ea f83c d53f 09bd 7f89 d0bc
00000100: 1015 bebc e6c0 a73c 48dd 97bc 1245 80bd
00000110: 2248 9bbd 7995 623d 5071 59bd 30b8 2dbd
00000120: a6a1 923d b7d0 273c 2278 3abd 0e78 573d
00000130: d123 523d ae5f 053d 22c4 383d a45d 5ebd
00000140: 2add 5c3d eec2 6e3d bc7b 3bbc 8ceb 9c3c
00000150: 405b 8cba 5f58 813d 75ce c83b d2dc 5c3d
00000160: 4e94 313d 4a06 d4bb afba 653c 0c3e 15bd
00000170: 034f c3be ddee 173d d826 36bc f741 c73d
00000180: 4ca3 67bc 9be1 1c3c a21b b2bc c75d ae3d
00000190: ce04 76bd ce51 7bbd a84a fe3c 93c8 a0bb
000001a0: f098 12bd 506b 69bc 40bd c93a dc7f 483d
000001b0: 10b5 7c3c 2785 4bbd 3b54 4c3d b6d9 a6bd
000001c0: b81a a33c 8136 4d3d dac7 7d3d f8a5 35bc
000001d0: 115d 87bb 722d ba3c f9db 903c e295 d5bc
000001e0: 9901 02bc b92b cb3c d03c d83c 08df 37bd
000001f0: a0ab 24bd 786f 84bc 2a61 2bbd 56de ee3b
00000200: 5398 113b e670 513d eb41 97bc 00e7 09bb
00000210: 13b7 1dbd 04ec cbbc a893 03bd ec48 c23c
00000220: 8659 6fbd 62b7 643d 306f 303c 63b2 bc3c
00000230: 381d b33c c780 b0bc d0e8 74bc 5a09 053d
00000240: a2cd fbbc b8a8 293c 59e1 5e3d 97b5 8cbc
00000250: 5453 09bd d6ed f9bc 44e7 cb3c a0ba c0bc
00000260: a0d7 42bc a007 93ba 1301 603d 8a8f f13b
00000270: e74c 7e3d 78f6 773c 5fc7 7f3d 3af2 59bd
00000280: 2f4f 573c 41cb 283d bd48 3cbd fc87 e53c
00000290: 5872 b63c f2c8 42bd 5085 073d 2980 fdbc
000002a0: b72d 233d 34bf 9bbc f8af 14bc 3bfd d73b
000002b0: 607b f9bd a840 6fbd c459 2bbd 1672 06bd
000002c0: 3d61 603d 5f6a 873b 574a 12bd a2d2 5cbd
000002d0: 1a3c 40bd 27af 32ba 0495 06bd 84b2 c13c
000002e0: 08e0 6bbc 8612 153c 005a 11bd df13 a33d
000002f0: 0a8c d2bc d6d5 1b3d 8668 b83c ab24 5c3d
00000300: c6c8 7b3d a74d 6cbc 4186 08be 77a7 71bd
00000310: 0ce9 eb3c b4fb 46bd 882c 333c 8a7d 163d
00000320: 62be 993c f4cd 483d e90f c9ba 0000 6139
00000330: a89d 2f3d 045a 2ebd b896 863c 84ee 42bd
00000340: 82b3 bfbd dee3 5abd 6d07 1c3d 7892 30bc
00000350: a89d 073c e8a4 aabc c4ec 983c 97ab 7fbd
00000360: 74f1 81bc a82f 4fbd a41f a1bc 4fb1 173d
00000370: 5853 0f3d 7bdc 49bd b16d 053d 106f 773c
00000380: 209b cbbc 172d 993c ff63 8ebd 776c e63c
00000390: eb69 533d ca3c 14bd 0a02 34bd 3018 56bd
000003a0: 36e8 ab3c 7a29 6fbd 6e6a 6a3d 300d 133d
000003b0: 2846 babc 72da 583d a3eb 02bd da96 df3d
000003c0: da0b 2a3d 2818 febc c3a5 43bd 10ed f13b
000003d0: 132f 01bc 5927 2ebc e6d5 76bd f4d8 803c
000003e0: 7844 313c 5d8d 1dbd bc86 d8bc f6c2 15bd
000003f0: a46d 20bd 68d6 50bd c429 ea3c 2af2 c4bd
-0.03538815 -0.048131898 0.04669355 -0.04176329 -1.642853e-05 0.04521398 0.05560884 0.054510046
0.030743927 -0.10509581 -0.05429963 0.09555565 -0.015628248 -0.031314917 0.008177637 -0.08802461
-0.00056070363 -0.03500797 -0.043722384 0.04855881 -0.0047618225 -0.056752883 0.053690605 -0.021920549
0.06136036 -0.024081182 0.030724684 0.010179651 0.03799954 0.00022747603 -0.08237875 -0.022652104
0.009518005 0.0008587627 -0.047077093 0.009260163 -0.035201527 0.02355578 0.03874281 0.027918944
-0.018589359 0.022647686 0.023429424 -0.0027367324 -0.016951628 0.0032478122 0.02082415 -0.024422929
-0.02201263 -0.046284176 -0.13324332 -0.07284452 -0.039116777 -0.057689223 0.038765978 0.08236591
0.004806499 0.019327916 0.017335191 -0.025317436 0.05098805 0.030385112 -0.03350814 -0.025456188
-0.023203403 0.020477723 -0.018538132 -0.06263174 -0.075821176 0.05531833 -0.05308658 -0.042411983
0.07159738 0.010242633 -0.045524724 0.052604727 0.05130369 0.03256195 0.04510892 -0.05428852
0.053921856 0.05829137 -0.011443075 0.019155286 -0.0010708347 0.063156836 0.006128127 0.05392153
0.043354325 -0.0064704763 0.01402156 -0.036436126 -0.3814622 0.037093032 -0.0111176595 0.09729379
-0.014138054 0.009575273 -0.021741692 0.0851398 -0.060063176 -0.061357312 0.031041458 -0.004906723
-0.035790384 -0.014246777 0.0015391484 0.04895006 0.015424028 -0.04968753 0.049885016 -0.08146994
0.019910201 0.050100807 0.06195817 -0.011086933 -0.0041309674 0.022726748 0.017683016 -0.026072446
-0.007934951 0.024801122 0.026396185 -0.044890434 -0.040202737 -0.016166434 -0.04184071 0.007289688
0.0022216036 0.05113306 -0.01846405 -0.0021042228 -0.03850467 -0.024892814 -0.032123238 0.023716412
-0.058434986 0.05583895 0.010768697 0.02303428 0.021864519 -0.02154578 -0.014948085 0.03247962
-0.030737702 0.010355167 0.054414127 -0.017176433 -0.033526734 -0.030508917 0.02489055 -0.02352649
-0.011892229 -0.0011217482 0.054688524 0.0073718475 0.06208506 0.015134446 0.062445994 -0.05320952
0.013141437 0.041209463 -0.045967806 0.028018944 0.02227132 -0.047554918 0.03308612 -0.0309449
0.03983852 -0.019012071 -0.009075157 0.0065914667 -0.12181735 -0.05841127 -0.041833654 -0.032823645
0.054780234 0.0041325535 -0.035715427 -0.053911813 -0.046932317 -0.0006816261 -0.032856956 0.023644693
-0.014396675 0.009098655 -0.03548622 0.079627745 -0.025701541 0.038045727 0.022510778 0.053745907
0.06147077 -0.014422811 -0.13332464 -0.058997598 0.028797649 -0.048579887 0.01093591 0.036740817
0.01876754 0.049024537 -0.0015339825 0.00021457672 0.042874962 -0.042566314 0.01642929 -0.047590747
-0.0936041 -0.053439967 0.03809302 -0.010777108 0.008277334 -0.020830587 0.018667586 -0.0624195
-0.015862204 -0.050582558 -0.019668408 0.03703433 0.034991592 -0.049282532 0.032575313 0.015102163
-0.024854243 0.018698258 -0.069526665 0.028127892 0.051614683 -0.036190785 -0.043947257 -0.05226916
0.02098475 -0.058389165 0.057230406 0.03590125 -0.022738531 0.0529427 -0.031963002 0.109174445
0.04151521 -0.031017378 -0.047765505 0.0073829964 -0.0078847585 -0.010629498 -0.060262583 0.015728451
0.010819547 -0.038464893 -0.026431434 -0.036562882 -0.03916706 -0.050985724 0.028584369 -0.09616502

net.4.bias f4 [256]
00000000: 8d61 64bd b5a3 e43b 1ee6 78bd be8a ddbd
00000010: bec1 32bd 09ae b8bd 3507 1fbd e637 fd3c
00000020: 6257 11be b91f 87bc 4ce0 f13a 7dfb 1fbd
00000030: 188c 023e 358e 273d d790 0abe 11a2 a53c
00000040: dcd2 84bd 9064 3d3d 8e1d 9bbd 2718 d93d
00000050: f822 15bd f3f4 5fbc 42ed 3a3d d183 853c
00000060: 9b0d 8ebd 9a9d 483d 5858 2abd 096b e03b
00000070: 310e d5bd 6f41 cdbc 3661 64bd 88bd 8cbd
00000080: 5f76 80bd f0ac 60bd 646c 4f3d c45d 17bc
00000090: 7354 46bc 6b44 33bd 551f 85bd a12b e3bd
000000a0: b4a2 99bc 4cfc 9c3d 3523 6e3d 1c88 0bbe
000000b0: 1b74 15bd 834d 0ebd f677 38bc f202 6cbc
000000c0: 989c c8bc 823d e2bc c9ed f1bb 0604 6cbd
000000d0: d48f 9ebd b99b b13c dac0 9ebd d225 5cbd
000000e0: 9737 7fbd b072 b8bc 2889 273d 77ea 78bd
000000f0: e7fc c7bd b038 f7bd dfb1 a7bd a40f 333c
00000100: 54ae c53d 612a e7bb 1a9a 9f3d 025a 4cbd
00000110: b53d 66bd d51c 5bbd 5ffa c5bc 01a2 58bd
00000120: 3f3b 6c3d 62f2 83bd 4940 32be d1dd b43c
00000130: d516 46bc 63d5 553c a985 93bd 6901 babc
00000140: 1578 dbba a8b6 8abd f896 0cbd 4057 f3bc
00000150: fdfb d4bc 29bc 82bc 4fb1 96bd a8eb e73d
00000160: 4a4a 11be 86d0 84bd c39c a73d e34d 203d
00000170: 0a4f 523d 0689 713c b2bd c2bb 5ced 2e3d
00000180: 0613 88bd 621c 82be c3db be3b 6e8e 1dbd
00000190: 558b 80bd c500 7ebd cf99 9ebd e08e 193d
000001a0: 709d 9cbc 309c 16bd 675b 223d 35a4 1cbd
000001b0: 4680 be3d d13d 41be 11c9 a1bd efc0 b0bd
000001c0: 4733 c33c 1f7f 95bd 2a0e c53c 4ec4 1d3c
000001d0: 6d33 8cbd e284 2abd 322e 5cbc 2ec1 3abd
000001e0: 5426 823d 30c3 4ebd 7f3a 333c 824d 273d
000001f0: a415 79bd c641 20bc df2a 8fbc 08a3 55bd
00000200: c03b 92bc 2f02 0f3d 6ee4 23bb af30 bebd
00000210: 27de 1fbd b360 e9bd ccb4 b63c b188 c93d
00000220: 3f3d b7bd 31ba 88bd 4353 8bbc 7da1 4fbd
00000230: 929f 8b3b dcde 363d 97ec 83bd 7f5d 8cbd
00000240: 8ff2 8fbb ed92 ea3c f4ba 90bb 4dbc d13c
00000250: 3dd9 d1bd 3427 553d dc41 003b 8bd7 b23c
00000260: d689 f3bd a1e3 e9bd 868f 91bc 55e5 70bd
00000270: 9ef3 4abd b75e 2dbd df09 b3bd b641 dcbd
00000280: 905c f83c b9ef 70bc ccac 0ebd 3871 3b3d
00000290: 4ccd 65bd a628 8abd 7826 4abd 891b 3e3d
000002a0: 9dfb 633c 7c13 adbd c6c5 93bc 76ed a8bc
000002b0: 6a5b 9dbd 8140 a5bd cb54 4dbc 5300 11bd
000002c0: cdc4 253d adf7 1fbd ac78 a6bd f6ce 8d3c
000002d0: 442e 7e3c 4d84 1dbd f374 00bc 190f 363d
000002e0: 4543 e0bd b399 57bd 572e 293c 45ff 70bd
000002f0: f8fb 62bb 5408 af3b c1c6 00be 8625 97bd
00000300: 2d13 023d 9420 d7bd e3f4 9abd 81e0 c9bc
00000310: b4d8 8bbd dd27 e1bd f970 26bb 5691 42bc
00000320: 7754 a3bd 6595 5ebc 808f bcbd c52a a6bd
00000330: 3604 f1bb a6d2 51bd aa07 a2bd b15a 81bd
00000340: f8f6 6abd 54bd e1bd 751c b8bd 17f0 1d3d
00000350: 1bf6 92bd 1d1d 0a3d 250e d03c 751c ebbc
00000360: cfa6 b7bd 1119 163d 7611 5bbd 113e 74bd
00000370: aed7 b5bd 1d30 753c 8817 79bd 0a25 4c3d
00000380: 69a2 1f3d 8673 00bd b3f1 b4bd 6d65 32be
00000390: 7633 f7bc 32ba cfba 5e8b 43bc c7e1 823c
000003a0: 2420 bebd 45ad 0abd f846 00bd b048 9ebd
000003b0: dff5 75bd 602a debc ed45 a7bd 477c 69bd
000003c0: ac33 15bd 5d9b a63c 6431 d53c 5539 28bd
000003d0: d89e 80bd 46e2 71bd d700 30bd b383 9c3d
000003e0: f171 36be 1e06 8a3d 3209 5dbd 4067 8bba
000003f0: b0b8 48bc 8614 4d3d 0442 1bba 540c 913c
-0.055757094 0.006977523 -0.06076633 -0.108174786 -0.0436418 -0.090175696 -0.038825233 0.030910444
-0.1419349 -0.016494619 0.0018453686 -0.039058197 0.12748754 0.040907104 -0.13531815 0.02021888
-0.06485531 0.046238482 -0.075739965 0.1060031 -0.036410302 -0.01366924 0.045636423 0.016298207
-0.06936189 0.048978426 -0.041588157 0.006848697 -0.104030974 -0.025055615 -0.05575677 -0.06872088
-0.062725775 -0.054852426 0.05064048 -0.009238664 -0.012105095 -0.04376642 -0.06500117 -0.11092306
-0.01875434 0.07665309 0.058139045 -0.1362614 -0.03648768 -0.03474189 -0.01125907 -0.014404999
-0.024488732 -0.02761722 -0.0073830825 -0.057621025 -0.07742277 0.0216807 -0.07751627 -0.053747006
-0.062308874 -0.022515625 0.040902287 -0.060770478 -0.09765034 -0.12071359 -0.08188223 0.010929022
0.09652391 -0.0070546125 0.077930644 -0.049890526 -0.056211192 -0.053494293 -0.024167238 -0.052888874
0.05767369 -0.06442715 -0.17407335 0.022078427 -0.0120904045 0.013051364 -0.07203228 -0.02270575
-0.0016744161 -0.0677312 -0.034323663 -0.02970469 -0.025999064 -0.015958862 -0.07358038 0.11324245
-0.14188495 -0.06485085 0.08184197 0.03913678 0.05134491 0.014742142 -0.0059430236 0.042706832
-0.066442534 -0.2541228 0.0058245375 -0.03846591 -0.062765755 -0.062012453 -0.077441804 0.03748977
-0.01911804 -0.036770046 0.03963795 -0.038242538 0.0930181 -0.18871237 -0.078996785 -0.08630549
0.023828162 -0.07299637 0.024054606 0.009629322 -0.06845746 -0.041630633 -0.013438748 -0.045594387
0.06354967 -0.050479114 0.0109392395 0.0408454 -0.060811654 -0.009781307 -0.017476497 -0.05215743
-0.017850757 0.03491419 -0.002500798 -0.092866294 -0.03903022 -0.11395397 0.022303008 0.09840525
-0.08947229 -0.06676138 -0.017007476 -0.050691117 0.0042609656 0.04464613 -0.0644161 -0.068537705
-0.004392929 0.028634513 -0.004416818 0.025602484 -0.10246513 0.05203934 0.0019570505 0.021831295
-0.118915245 -0.1142037 -0.017768633 -0.058812458 -0.049548738 -0.042326655 -0.08742117 -0.10754721
0.030317575 -0.014705592 -0.03483276 0.04576227 -0.05610399 -0.06746034 -0.049353093 0.04641298
0.01391497 -0.08450982 -0.018038642 -0.020621043 -0.076834515 -0.08068944 -0.012532423 -0.0354007
0.040470887 -0.03905456 -0.08128485 0.0173106 0.01551396 -0.03845625 -0.007840383 0.044447992
-0.10950331 -0.052636813 0.01032599 -0.058837194 -0.0034635048 0.005341569 -0.12575819 -0.07380204
0.03175657 -0.10504261 -0.0756624 -0.024643185 -0.06828442 -0.109939314 -0.0025396927 -0.011875471
-0.07975095 -0.013585423 -0.09207058 -0.081136264 -0.0073552383 -0.05122628 -0.07911618 -0.06316126
-0.057364434 -0.110224396 -0.08989803 0.038559046 -0.07175847 0.03371917 0.02539737 -0.028700093
-0.08967363 0.036645 -0.05348345 -0.059629504 -0.08879028 0.014965084 -0.060813457 0.04984001
0.038973246 -0.03136017 -0.08835163 -0.17421503 -0.030175906 -0.0015848337 -0.011935083 0.0159768
-0.09283474 -0.03385665 -0.03131768 -0.07728708 -0.060048934 -0.027119815 -0.08167634 -0.057003286
-0.03642623 0.020337755 0.026024528 -0.0410703 -0.06280297 -0.05905368 -0.04296955 0.07642307
-0.17816903 0.06739448 -0.053963847 -0.0010635629 -0.012251064 0.0500684 -0.0005922618 0.017706074

net.6.weight f4 [1, 256]
00000000: 7954 3c3c a0e2 a7bd 52bc ad39 cbce 373c
00000010: e513 c73e 1f59 8c3b 9a96 713a 61c7 833e
00000020: e034 a23e 997f 903b 514e 9f3d 9e85 0f3d
00000030: d23d 8a3e 3593 a33e 76a9 963d 0faa af3d
00000040: 5008 cd3d 9a35 bf3e b273 b3bd dc02 853f
00000050: 079b 0dbc d112 2fbf 9c9a 01bf f4a6 b43c
00000060: a5e4 2e3e 479f 423e 0369 823e 228d 243e
00000070: d0a4 6f3d 2464 213c 7833 75bc 5dae c73c
00000080: f453 253b dd8e 3e3d 003a 9a3e 3647 85bb
00000090: c17d 203b 6d0d 133f 091e 87bb 3afc 6ebc
000000a0: 712c 7b3a dcd0 303d 271e 4cbe 4ff3 2d3b
000000b0: 2e52 b4bc 1d86 3d3c 7445 b7bb 42f6 263a
000000c0: 526e b93c 9428 663e b569 193b 34e5 bf3a
000000d0: d2ac e23b 04bc eabe b42f cfbb b5e3 88bb
000000e0: 61ae 043b b5c4 e73a f676 b13d 2df1 c7bc
000000f0: c75e 083f dc68 093f 29e4 b53d 76c1 a83d
00000100: cd59 433e 9ffc fabd 6a36 123e 8b7a 61ba
00000110: 86f6 ccbd 6ad9 2a3b 7804 973b 1d48 2abc
00000120: 4633 bf3d 8116 23bb 3629 fa3e 48c1 0cbe
00000130: ab3f 053f 57cb 443c 91ef 80ba 1d46 dbbe
00000140: ac5b 99be 27f7 023d 2ba7 533c 0a61 8abd
00000150: f87a 82be 034f adbd d7b4 273d cfd8 a83e
00000160: 2d2a 863e 0c62 5c3a 8cff ae3d 460b 813e
00000170: b217 7c3e c7eb 943e 98a0 853b 67c7 dc3d
00000180: 6f2d 3c3a b0f0 b6be 4888 073c 1ba0 993c
00000190: 252e cf3c 4ee1 7c3a 41d3 c2bd 7b86 833e
000001a0: 1031 b03c 295d b339 30db 4cbb fc69 7dbb
000001b0: 0f9a 253e 13a4 db3e c660 843c 369e 663c
000001c0: 1c49 293c bdfa 6e3a 7e8b 0fb9 c1df b23e
000001d0: 2681 a53c 50ad 323c 8793 b13c 8d1f a93c
000001e0: 460b 8b3b 7c0e c6bc c8da 8c3d 59ea 203d
000001f0: 0021 563e 766f 433e ee2a 72be ad1b 11be
00000200: 569f 663c 5b8b abbd cab9 2e3e f565 4c3b
00000210: 7dd5 a03b af94 cdbe 7474 bb3b 6a3b 433e
00000220: c2c3 0d3f 0f4f 8abc 8102 fb3e 4253 6f3b
00000230: e6e9 303c 4044 543f 9cd4 bfbd 7e3c 3cbb
00000240: e557 433c 9773 053f 1d4f b5be 6ee7 a63e
00000250: 3480 82bb d871 9c3d 3812 da3d cf07 b23c
00000260: f1f5 203d e3a1 9a3e 6c2d c8bd 530b 1fbc
00000270: 237f 0c3c 422f 733e 9d9d 6fbd 8ed9 b73c
00000280: d912 093e ca50 123c edee 42bd 2618 143e
00000290: 3618 bbbe 603f ef3c cb01 46bc 8a17 a73d
000002a0: 35e2 583e 3a19 2fbc 7eeb 4c3e 5b50 28bc
000002b0: aec4 7e3d 0c27 2abc 5d7e 47bc a8fe 9438
000002c0: 3b10 fc3d 9b49 86bb b1b9 5ebb 4e2e 71be
000002d0: 2143 d6bd a3f4 29bc 61da 1a3c 98c7 c13d
000002e0: 6e40 47bc fdea f5bb 8075 fd3a ee39 ca3d
000002f0: b3a1 7d3b b0ae f2ba 9d77 28be eeb4 003c
00000300: 1182 84bd 00f0 b03d b143 123d 79a3 293e
00000310: ecf5 08bd 73b4 e838 8467 383c 450e cb39
00000320: 9278 3e3c 33a4 633c 2405 97bc fce7 0d3c
00000330: e2f3 d93d 4d31 30bd 354a 8c3b 05e6 5ebd
00000340: 60cf 98bb fbd2 153e aeb8 0ebc 6894 053d
00000350: 4704 b13c 4fed 01be 32a4 923b 10bb 1b3d
00000360: 0ab1 863e 9845 853e 1de2 b9bc ddcb d7be
00000370: 0c34 b33c 6204 973e 6144 7f3c 3c03 8b3a
00000380: afae 613d 0cfd d3bb a81f 05bc e997 303f
00000390: f98a 853e 71b6 01bf 57f2 c63b 8f62 793c
000003a0: 8e22 763d 962f 28be c140 35bc c39f c43c
000003b0: 1984 ac3c ef93 dd3c 2ba5 99bd d3b4 70bc
000003c0: 7a5f 28be dc8d 093f 2bcf ba3b d623 b43c
000003d0: 15fa 33bd 8b4e 1c3c b1a8 8a3b 51a6 703e
000003e0: 5fe7 e7be 450c 873e a49d 73bc db05 2cbe
000003f0: 85d8 91be 0d7f 483e a57a 553c 19b0 09bf
0.011494749 -0.08197522 0.0003313744 0.011218737 0.38882366 0.004283085 0.0009215862 0.25738052
0.31680965 0.004409742 0.077786095 0.035039537 0.2700029 0.31948248 0.07356541 0.08577358
0.10011351 0.37345582 -0.087623015 1.0391498 -0.008642918 -0.68388087 -0.5062654 0.022052266
0.17079408 0.19006072 0.25470743 0.16069463 0.058506787 0.009850536 -0.014965884 0.024375135
0.0025227042 0.046522964 0.30122375 -0.004067327 0.0024489018 0.5744236 -0.0041234535 -0.014586503
0.00095815124 0.043167934 -0.19933377 0.0026542728 -0.022011843 0.01156762 -0.0055929963 0.0006369093
0.022635613 0.22476417 0.0023408954 0.0014640451 0.0069175744 -0.4584657 -0.0063228253 -0.0041775354
0.002024554 0.0017682525 0.08665268 -0.024406994 0.5326962 0.5367563 0.08881409 0.08240025
0.19077225 -0.12255215 0.1427857 -0.0008601329 -0.10007958 0.002606953 0.004608687 -0.01039317
0.093359515 -0.002488524 0.48859566 -0.13745606 0.52050275 0.012011371 -0.0009837021 -0.4282693
-0.29952753 0.031973984 0.012918274 -0.0675679 -0.25484443 -0.08462336 0.040943947 0.32977912
0.26204053 0.0008406944 0.085448354 0.25203913 0.24618414 0.29086134 0.004077982 0.107802205
0.0007178401 -0.35730505 0.008272238 0.018753102 0.025290558 0.000964661 -0.0951295 0.25688538
0.02150777 0.0003421095 -0.0031258576 -0.0038667908 0.1617205 0.42898616 0.016159426 0.014075806
0.010332372 0.00091163424 -0.00013689508 0.34936336 0.020203184 0.010905579 0.021676792 0.020644927
0.0042432873 -0.024176829 0.06877667 0.03928599 0.20911026 0.19085488 -0.23649189 -0.14170714
0.014076075 -0.08376189 0.1706306 0.00311887 0.0049082623 -0.401525 0.0057206694 0.19065633
0.5537683 -0.016883401 0.49025348 0.0036518131 0.010797953 0.8291664 -0.09366724 -0.002872258
0.011922811 0.521295 -0.3541192 0.32598442 -0.003982568 0.076389015 0.10648006 0.021732239
0.039297048 0.30201635 -0.097742885 -0.00970729 0.008575234 0.23748496 -0.05849992 0.022442605
0.13386096 0.008930394 -0.04759114 0.14462337 -0.3654191 0.029205024 -0.012085388 0.081587866
0.21180041 -0.010687167 0.20011708 -0.0102730645 0.062199287 -0.010385286 -0.012176123 7.1046234e-05
0.12307783 -0.00409813 -0.0033985192 -0.2355282 -0.104620226 -0.010373267 0.00945148 0.094618976
-0.012161357 -0.0075048194 0.0019337386 0.098743305 0.0038701117 -0.0018515196 -0.16451879 0.007855637
-0.06470121 0.08639526 0.035709087 0.16566266 -0.033437654 0.00011096233 0.011255149 0.0003872981
0.011625426 0.013894129 -0.018435068 0.008661266 0.1064222 -0.043015767 0.004281307 -0.054418582
-0.004663393 0.14631264 -0.008711023 0.032612234 0.021608485 -0.12688182 0.00447514 0.038020194
0.26306945 0.26029658 -0.022690827 -0.42147723 0.021875404 0.2949553 0.015580268 0.0010605822
0.055098232 -0.0064693745 -0.008125223 0.68981797 0.2608259 -0.5066901 0.0060713696 0.015221252
0.060091548 -0.16424403 -0.011062802 0.024001962 0.021059083 0.02704808 -0.075022064 -0.014691549
-0.16442671 0.53732085 0.005700966 0.021989744 -0.04393967 0.0095402105 0.0042315354 0.23500945
-0.4529371 0.26376548 -0.014869127 -0.16799109 -0.28485504 0.19579716 0.013029729 -0.5378433
