mountain-car-continious/critic.pth (torch, 534324 bytes, 7 tensors)

net.0.weight f4 [256, 3]
00000000: d4f9 b1be b68f e13f 9472 1a3e c6f4 453d
00000010: 11fa 7e3d 15ce d2b9 82cd 37bf a974 2440
00000020: f65e aabb cf29 573f 8e80 f23f 3e9e 8dbe
00000030: 127f 383d 4135 99bf bb63 993e 2ba6 903e
00000040: 5ccd 9fbe 91c6 c63e b026 3a3e d3a9 e93c
00000050: 64d6 2fbe 2dd2 6fbf fb2e a5bf d66d 913e
00000060: f73e 85be 8ccd 933f e304 9c3c 265c 56be
00000070: 46f9 9bbf 7cbf 4c3e 0c08 37bf a3f8 c83f
00000080: 2868 933d b227 353f d74e 1c40 a0b9 803d
00000090: de6e 103f 894c 30be de7b 863d b02e 933e
000000a0: 80f0 b43f 8af5 dcbe 6e80 67be 7715 cfbf
000000b0: 910a 303e f566 a5bd 64dc ea3f 2050 af3e
000000c0: 4ed0 423f eebc d2be 7e61 7dbd d90d cebd
000000d0: 4f21 ed3f 099e c43e abd0 493e e45a 0840
000000e0: 008f 903e 9336 00bf cd9c 7ebd c3dc 12be
000000f0: 8497 b73d d117 abbb 2330 94be 2d75 2c3f
00000100: 47da 943f 296c 97be 4127 2cbe 485e c13f
00000110: eb1d 3cbe 39f9 c93e b9aa 82be 4276 fd3d
00000120: 9b3b 85be 9399 c3bf b597 2fbe e147 163f
00000130: eda4 b53f 3081 ef3e b653 193f 1ad2 363f
00000140: 27ab fa3e 8b9a adbe 3234 fbbf 2b29 fc3b
00000150: 0be7 04be f0a9 a5bf 8bb1 6b3e 9fec 5ebe
00000160: 06bf d6be 0de7 18be f793 153d 6124 cbbf
00000170: d89d 09bd bff6 bebe 11bd ebbf 9aef 113f
00000180: 3d89 aabe 2b4c 8ebf 87bb b43e 2885 a9bd
00000190: b39a adbf ad65 d8be 7841 c2bd 4b4d 0440
000001a0: 5253 1f3e fbc2 113e ee43 62bf 84ae bfbc
000001b0: 3762 00be 5703 e5bf cb88 1cbe 8fa6 b1be
000001c0: 67e6 85be 79fb 33bc 1d78 86bd 887a 0040
000001d0: 26dd fc3d d441 293e 3cb3 28bd aa90 f33b
000001e0: 2541 86be d49c 9cbf 976e a93e 8b96 5c3e
000001f0: 2e6e f83f 508d 04bf cb9a 1fbf ed2a 3cc0
00000200: fcb3 9cbe ecce 953e f6fb 57bf cd4e 31bd
00000210: 743c 293f 6564 0640 7258 40bc 9570 33bd
00000220: 66c9 1fc0 4060 f7be 2ae7 d4be 1ad2 a0bf
00000230: 1174 073c 555d 70bf efb1 35bf 8610 013d
00000240: 47fb cebe d37d b5bf 09ce 193f 23e5 edbd
00000250: 8232 ab3f e485 1dbe 42b1 173f 164c c93f
00000260: cbee 4d3e 4998 bd3e 590f 1040 3da3 db3b
00000270: 3e87 febd 1d3f 8fbf 409f dbbe 021d 80be
00000280: a1af d9bf e960 c53e 0487 8dbe 0fe3 b93f
00000290: 4073 643d a3ff 0a3f 8aa6 b83f ec9f 0a3f
000002a0: 5f7a f23e d6b9 0540 6d8f b23d 120c 233f
000002b0: c523 1240 a28c 69bd 37c6 2abe 6cd5 c13f
000002c0: 6554 8ebe 6a04 04be 2423 cdbe f4ee d43e
000002d0: 712d 653e 263d 923e abfc fbbd e372 e1bd
000002e0: 8e5a 38bf 6b77 f1bd 3a6c 1f3e 690d e93f
000002f0: 155c fabe 2cfd 9dbc d273 da3f b978 8abe
00000300: 3017 94be b997 91bf f015 e93e 3915 0f3e
00000310: fba1 86bf e2ac fe3e 2f83 a6bc 6184 8cbd
00000320: 27a2 773c 7f0e 223f 23b6 e23f fef7 b7be
00000330: 22f5 e3be 70fd 6bbf dfce 0fbe b1e4 61bf
00000340: 4444 1040 d97a a4bd 3359 873b 10d8 0b3f
00000350: 506c 95be 4e3c 95bd 820d b63f 178c b73e
00000360: ab98 bfbe ebb8 e2be f7e8 44be 1cf8 58be
00000370: 0d2e ffbf 09e6 bcbe 8509 0fbf d6df 76bc
00000380: 76d1 963e 755c 153f 9718 f53f 2d14 d93d
00000390: ccfe 3fbe a69a a1bf d78f 143c f32b 503e
000003a0: f078 98be 7246 3d3e 0500 edbe 1e5c 323f
000003b0: f4db b0be 6929 bf3e 3734 2240 d8a5 593e
000003c0: 7c3b 45bf 4947 123f 4183 223e 0dd7 f5be
000003d0: b1d3 0840 0e4f 213e 694c 223f 07e7 aa3f
000003e0: 334c 2e3f 1314 a13d 3acd e1bf 12ad 103e
000003f0: 650e eabc 3d35 fd3e fd53 9c3d 9cce 553f
-0.34760916 1.7621982 0.1508277 0.048329137 0.0622502 -0.00040207864 -0.71797955 2.5696204
-0.0051993085 0.8404817 1.8945482 -0.27659792 0.04504306 -1.1969377 0.299589 0.28251776
-0.31211364 0.3882337 0.1817882 0.028523361 -0.17171627 -0.9368008 -1.2904962 0.2840411
-0.260246 1.1547103 0.019045299 -0.2093359 -1.2185447 0.1999492 -0.71496654 1.5700878
0.071976006 0.70763695 2.442312 0.06285405 0.5641917 -0.17216696 0.065665945 0.28746557
1.4135895 -0.4315608 -0.22607586 -1.6178426 0.17191531 -0.08076278 1.8348508 0.34240818
0.760991 -0.41159767 -0.061860554 -0.10061235 1.852579 0.3840182 0.19708507 2.1305475
0.282341 -0.50083274 -0.062161256 -0.14342026 0.08964446 -0.005221345 -0.28942975 0.67366296
1.1629113 -0.29574707 -0.16811849 1.5106897 -0.18370788 0.39447954 -0.25520876 0.123760715
-0.26022038 -1.5281242 -0.17147715 0.5870343 1.4190956 0.4677825 0.5989336 0.7141434
0.48958704 -0.3390697 -1.9625304 0.0076953373 -0.12978761 -1.2942486 0.23016946 -0.21769951
-0.41942614 -0.14931889 0.036518063 -1.5870477 -0.033597797 -0.37297627 -1.8417073 0.5700623
-0.3330783 -1.1116995 0.35299322 -0.08277351 -1.3562835 -0.42265072 -0.094851434 2.0672176
0.15559128 0.14234535 -0.883849 -0.023398645 -0.12537466 -1.7891644 -0.15286557 -0.34697387
-0.26152346 -0.010985249 -0.065658785 2.0074787 0.12346868 0.16529018 -0.041186556 0.007433017
-0.26221576 -1.223536 0.33092186 0.21541803 1.9408624 -0.51778126 -0.6234557 -2.94012
-0.30606067 0.2925943 -0.84368837 -0.04328804 0.6610787 2.0998776 -0.011739837 -0.04380854
-2.4966674 -0.4831562 -0.41582614 -1.2564118 0.0082674185 -0.93892413 -0.7097463 0.0315099
-0.40426084 -1.4179024 0.6008001 -0.1161597 1.3374789 -0.15383106 0.5925485 1.5726345
0.20110624 0.37030247 2.2509367 0.006702809 -0.12428139 -1.1191136 -0.42894936 -0.2502213
-1.7006723 0.385505 -0.2764207 1.4522418 0.055773973 0.5429632 1.4425824 0.5415027
0.47358987 2.0894675 0.087187625 0.6369029 2.2834332 -0.057018884 -0.16677175 1.5143256
-0.27798763 -0.12892309 -0.40065873 0.41588557 0.22380616 0.28562278 -0.12304052 -0.11008241
-0.72013175 -0.11790355 0.15568629 1.8207217 -0.48898378 -0.01928576 1.7066596 -0.2704523
-0.2892394 -1.1374427 0.4552455 0.1397294 -1.0518183 0.49741274 -0.020326225 -0.06861187
0.015114344 0.6330337 1.7711834 -0.3593139 -0.4452296 -0.9218359 -0.14043759 -0.8823958
2.2541666 -0.08031244 0.0041305064 0.5462656 -0.29184198 -0.07286893 1.4222872 0.35849068
-0.37421164 -0.44281706 -0.19229494 -0.21188396 -1.9935929 -0.36894253 -0.558739 -0.015068015
0.2945668 0.58344203 1.9148129 0.10599551 -0.18749541 -1.262532 0.009067497 0.20329265
-0.29779768 0.18483904 -0.46289077 0.6967181 -0.3454281 0.3733628 2.534437 0.2125467
-0.7704389 0.5714002 0.15870382 -0.48015633 2.1379206 0.15752813 0.6339784 1.3351754
0.6808502 0.07865157 -1.7640755 0.14128521 -0.028571317 0.4945468 0.07633207 0.83518386

net.0.bias f4 [256]
00000000: ebc1 f63e 246d 4ebe 6397 853e 6e00 24be
00000010: 15d9 4ebd dacb 84be 6461 edbe 82c3 8bbe
00000020: fb90 993e 5703 56bc e3fe 763e 95b3 1c3e
00000030: fe2c efbe 7cdb 1c3f b178 8a3e f3c5 a43e
00000040: ce24 37bf 6732 9d3e 1043 043f d53e 193e
00000050: e970 0abf 24c2 b7be 7ee6 5b3e 70c7 14bf
00000060: da03 bd3e 6b70 1e3f b5a8 2ebe 7c1a 353e
00000070: 80ee fc3e 9534 1abf 5edd b53e 851d c1be
00000080: 6813 503e 6043 0e3f 4c26 1d3e d546 273e
00000090: 7295 9f3e 927e a5be a4b9 0a3e 4831 b2be
000000a0: 1238 fd3d 8eb8 9fbe 5544 17be b961 26bf
000000b0: d115 1d3f 1435 d23d 2f6d 4e3e 389a a5bd
000000c0: 8c9f 18be 23c2 363e 65f2 bf3d d0ae 2c3e
000000d0: cc39 153f 94b2 793e 95c5 fc3e 7450 cdbd
000000e0: 3115 333f daf2 993e 25e7 3c3e 94de 213c
000000f0: 31c5 0abf d9ca 38bf 207e 90bd ef1f a33e
00000100: 62d7 16be 9c7d e1be d201 fabe 928a 9d3e
00000110: c3b3 fd3e e7dc c33d 3bd6 f4be c1c7 41bd
00000120: 4ff6 953e b5bf 663e 84df c23d 2504 4b3e
00000130: b200 8d3e 5e63 b8be f8c6 2cbe b617 f43e
00000140: 7eed 0c3e edc6 263e 0460 8abe a86f 073f
00000150: aa3c 08bf 9eee f23e d01d 25be 82fa 313d
00000160: 9301 8a3e 42f8 b7bd 3ae5 c93e 175f 113f
00000170: 6003 e63e 880d 833e 3721 d7bd 379b 013d
00000180: 7367 053f 3361 39be 1578 30bf af78 acbe
00000190: cfa5 6bbe 7e72 16bf a335 ecbe 9938 f3be
000001a0: 8c96 1b3e 56ee 923e 65d6 a83e 0578 8c3e
000001b0: 0b96 753e 956b a33e 740b 39bf 901f 8abe
000001c0: 2093 f23e 69c7 ff3e 9ebe 83be b3b7 203e
000001d0: 84f9 643e bf9a 9a3c d53c 973e f86e 1a3e
000001e0: 4319 b4be e275 32be e720 f23d e94a c33e
000001f0: 647b 693e a0e2 debe b865 02bf 95de e83e
00000200: 13f2 c83e db87 043e 21a8 9a3e f99d 08bf
00000210: 767a b33d 99d3 7a3e 669b 3b3e d0c0 9e3e
00000220: 06f1 10bf ccd5 b13e c13e b83e c397 eb3e
00000230: 0837 29bc e560 fe3e ad08 08be 5818 dabe
00000240: 0a44 54be 47cd 19bf 06c7 0cbe f2e9 a13e
00000250: 0e72 dc3e 0e61 a83e 35c1 eb3e 3962 883d
00000260: 1f6a 173e edf5 a53d b2e3 19be c786 2abe
00000270: aac0 153e b07d abbe 95cf c73e ef54 d8be
00000280: df9f cc3e 9dae a23e d6cb 163e 8324 bdbe
00000290: 1e6f 143e 84a3 513e 0c23 1c3d 5c7d 1cbe
000002a0: c4af d03e 45ba d9be b825 18bf 29f7 bfbe
000002b0: bcf2 bcbe 7338 333e 97f4 653d ca71 2f3e
000002c0: b945 aa3e 9890 b8bb 343d 953e 56b9 053f
000002d0: bda1 bf3e edd4 c93e 5c4f a83e 25c4 89be
000002e0: 0e64 1c3f f844 fa3e 77cc aa3d 568a 033f
000002f0: 4545 fdbe ef57 24bf d9ad 1bbf a98a 373e
00000300: 3edf 813e 5559 96be 8f31 a7be dfd2 76be
00000310: 9019 8d3e f56d 253d 2a87 0dbf a695 d63c
00000320: c639 c93d 60c3 51bd 029a fa3d 29d4 683e
00000330: b49e 7b3d bf77 c93e 5782 003d 901a b5be
00000340: 917b 023d 6fbe 08be c5c5 d13d 6540 a53e
00000350: 8ee8 ab3e 1766 093e a490 253e 0371 5c3e
00000360: ff24 883e d80c cebd ca28 0dbe 9feb f43e
00000370: 1d65 67bd fca8 29bf d3e4 4fbd faf6 7e3c
00000380: 2904 fe3c db13 b0be 7f34 4abd 7cf8 803e
00000390: 1666 a63d f0c1 06be 0cc3 1ebe 3e5e 843c
000003a0: 093c 103f 9f40 433e 104f 293f ef9b d73d
000003b0: 432c a13d 4b55 123f 79b9 b83e ff03 a03d
000003c0: 1352 11bf 8368 c9be f488 673e abb9 21bf
000003d0: 8d96 c5bd 386d 9cbe 200f ee3e bead da3d
000003e0: bf35 51be 638f e33e a8ac cbbe 5ef5 853e
000003f0: 2ae5 a3be 34f9 28be d6c8 93be 4d68 273e
0.48194823 -0.20158821 0.2609206 -0.16015789 -0.050499994 -0.25936776 -0.46363366 -0.27297598
0.29993424 -0.01306232 0.24120669 0.1530288 -0.46714014 0.61272407 0.27045205 0.32182273
-0.71540534 0.30702516 0.5166483 0.14965375 -0.5407854 -0.35890305 0.21474645 -0.5811682
0.36917 0.61890286 -0.17056544 0.17685884 0.4940071 -0.60236484 0.35520452 -0.37717834
0.20319903 0.55571556 0.1534664 0.16335614 0.31168705 -0.32323128 0.13547379 -0.34803224
0.1236421 -0.31195492 -0.1477216 -0.6499286 0.61361414 0.1026403 0.20158838 -0.080860555
-0.14904612 0.17847495 0.09372405 0.1686356 0.58291316 0.24384528 0.49369493 -0.10025111
0.6995421 0.30068094 0.1844755 0.009879727 -0.5420714 -0.7218452 -0.070553064 0.318603
-0.147306 -0.44041145 -0.48829514 0.30769783 0.4955121 0.09563618 -0.47819695 -0.04730964
0.2928948 0.22534068 0.095152885 0.198258 0.27539593 -0.3601331 -0.16872776 0.4767434
0.13762471 0.16286822 -0.2702638 0.5290475 -0.53217566 0.47447675 -0.16124654 0.043451793
0.26954326 -0.08982898 0.39432698 0.5678572 0.4492445 0.2559626 -0.10504382 0.031642165
0.52110976 -0.18103485 -0.6893323 -0.33685824 -0.2301247 -0.5876845 -0.46134672 -0.47504118
0.15194148 0.2869746 0.3297607 0.27435318 0.23983018 0.31918016 -0.722831 -0.26977205
0.47377872 0.49956825 -0.25731367 0.15695076 0.22360808 0.018872617 0.295386 0.15081394
-0.35175523 -0.17427781 0.11822682 0.3814309 0.22800976 -0.43532276 -0.5093646 0.45482317
0.39247188 0.1294245 0.30206397 -0.5336605 0.08763592 0.2449478 0.18320999 0.3100648
-0.5661777 0.34733427 0.35985377 0.46014223 -0.010328062 0.496833 -0.1328456 -0.42596698
-0.2072908 -0.60078853 -0.13747796 0.316238 0.43055767 0.32886547 0.46045843 0.066593595
0.14786576 0.08103547 -0.15028265 -0.16652976 0.14624277 -0.3349433 0.3902556 -0.422523
0.39965722 0.31773844 0.14726195 -0.3694192 0.14495513 0.20472533 0.03811936 -0.15282196
0.407591 -0.42524925 -0.59432554 -0.37493256 -0.36903942 0.17502002 0.056141462 0.17133251
0.3325632 -0.0056324713 0.29148257 0.52235925 0.37428084 0.39420262 0.32873046 -0.2690746
0.6109017 0.48880744 0.0833978 0.5138296 -0.4946691 -0.64196676 -0.60812145 0.17923988
0.25365633 -0.2936503 -0.32654998 -0.24103878 0.27558565 0.040388066 -0.5528437 0.026194405
0.098254725 -0.051211715 0.12236406 0.22737183 0.061430648 0.39349172 0.0313743 -0.35371828
0.031856123 -0.13353895 0.102428 0.32275692 0.33575863 0.1341785 0.16168457 0.21527486
0.26590726 -0.100610435 -0.13785091 0.47836015 -0.056492914 -0.66273475 -0.050755333 0.0155618135
0.031007843 -0.3439015 -0.04936647 0.2518958 0.0812494 -0.13159919 -0.15504092 0.01615822
0.56341606 0.1906762 0.66136265 0.10527789 0.078697704 0.57161397 0.36079004 0.07813262
-0.5676586 -0.3933755 0.22610837 -0.6317393 -0.09647856 -0.30552077 0.46495914 0.1067767
-0.20430659 0.44445333 -0.39780164 0.26163763 -0.32010776 -0.16501313 -0.28864163 0.16348381

net.2.weight f4 [256, 256]
00000000: 9f16 723c 5ed3 5cbd a801 5fbd 3ebd cb3c
00000010: 5201 0abc fac6 96bd 3306 583c 4a6d eebc
00000020: 6a89 873c 9755 3dbd dacb aa3c 93cf 6a3c
00000030: b03a 8cbc 3013 65bc 8e2e 0b3d 3201 b1bb
00000040: 9458 033d 57b9 0cbd ed13 6ebc 55c2 83bd
00000050: cdf3 37bd 9f65 52bd 4e0b f3bc 0882 03bc
00000060: b35c 6fbd 1b48 c0bc 5e25 1d3d eaba 093d
00000070: 9269 31bd 72cc dabc 9b12 a7bd cc64 813c
00000080: 5010 c83c 8f4e a6bc 5922 a93b e1d6 973b
00000090: 5e3e 40bd 24df 613c 1d24 2b3d e476 48bd
000000a0: ac06 833d 3d83 3f3c a61d fbbc a284 6fbd
000000b0: 767d 89bd ed97 90bd cd6a 50bc 2e70 0abd
000000c0: 28a3 82bd 6eec 25bd 7de3 ebbc 329b 103d
000000d0: 6974 afbc 4347 6bbd 6ac2 253d 0e4f 683a
000000e0: b2df 993c b29c 0bbb 8aee 053d 6f17 593d
000000f0: 6fd5 323d e8c0 72bd 5e23 4bbd 33c7 96bd
00000100: 5a67 2a3c 0337 89bc 4c2d e0bc 909e 30bd
00000110: a0f5 e8bb 431e 403a f32f 0a3d 3a01 ee3c
00000120: 3e65 133d 457f 58bd 1a7e 09bd 0331 873c
00000130: d96a 22bd 2431 c5bc 6c70 a0bd 3cae 0cbd
00000140: 1d33 f93c 1524 4d3c 02d0 4fbd 643f 8fbd
00000150: b261 16bd b4c5 91bc 3ae8 863b 2348 1f3d
00000160: e988 a8bd 8e8e aa3d 8109 a9bd e2d8 023d
00000170: 6bb2 f9bc d58a 2fbd 9678 f93b 0219 a0bb
00000180: a516 d9bc 2c2b 12bd 9afb a33c 2ff6 fbbb
00000190: 7b1e 043d ca54 553c e414 e93c fd58 c23c
000001a0: d6e2 b33c e07d 40bd 7368 ed3c 25b3 60bd
000001b0: c915 513c 3ad1 e3bc 4ef0 c03c 3730 4dbb
000001c0: 3d77 4dbd effe d33c 6871 94bd ced0 7cbd
000001d0: f9f8 1abd 8534 973d 72f1 d0bb 01a3 b8bb
000001e0: 14ee 4f3c 852c df3c d02c a8bd 8968 31bc
000001f0: fb99 1abd 805c 27bd 8cf7 523d 69f7 173a
00000200: d6d3 31bd 70bb 89bc f351 a1bd 2689 8abd
00000210: 8a6a 0f3d 3a7a abbc 2e9e be3c 4870 3fbc
00000220: be1f 74bd 37f5 36bd ac8b 693c b582 39b9
00000230: c5f5 f4bc b476 fc3c ce73 9bbb 46c5 f23c
00000240: edce da3c f84a 303d 5801 10bd 6b78 033d
00000250: dbf5 e13c 59c6 05bd 97c4 74bd c9d6 563c
00000260: 5ff4 12bd 1ead 173d ffac 4e3c 214f 0e3d
00000270: ee7d a2ba 0789 373c f3ab 91bd f0b5 37bc
00000280: b3c8 073d 06e5 80bd 733c 45bd 4e11 1c3b
00000290: ca40 2bbd bc9b 28bc 2aec 76bc aa38 6a3c
000002a0: f50d 253d 06b5 9f3c a6e6 1dbc aadf 76ba
000002b0: b3e9 73bd efcc b8b9 b796 e63c ac32 fdbc
000002c0: f366 97bd 67b9 e0bc e43d 12bd fae2 953c
000002d0: be60 ec3c c71a 573d b635 383d eaf8 26bd
000002e0: bc76 9d3c 7d33 13bd 6e9a 17bd ab42 76bd
000002f0: b47d d43c d499 41bd 68d1 2f3d e89e 4abd
00000300: 9c6b 86bd 6bdd 11bd 71c6 f0bc 55ce 69bc
00000310: c13c 003d 8075 afbb f091 f13c 4aa5 ff3b
00000320: e033 06bb 771b 27bd 6aa5 dabc 39c5 0b3c
00000330: 04dd 6fbb 3ce6 623c 3cad c53b 3a1c 043d
00000340: bbf2 aebc c772 83bd 5d7b 9bbc d95e e0bc
00000350: 1600 cd3c b1d5 03bd 38e6 c73c f219 97bd
00000360: bd69 1fbd 56ba 97bc 436f e9bc 0acc 03bd
00000370: 19a0 3b3d b392 b13c 285c a9bc d9bb 5cbd
00000380: 2a38 4b3c 9680 e23b bfb3 8a3b 8cbf 0dbd
00000390: 1ae6 ad3c 3356 783c bcd9 4d3d d76c af3c
000003a0: 67b0 d83c dba9 873c 73f6 e93c 7d28 7bbd
000003b0: 2322 90bd 3a55 70ba 760a 57bb 80c5 f3bc
000003c0: 787e 39bd 1b66 3b3d 5c72 febb 4053 003c
000003d0: 4c27 b1bd d75e a43c b431 3cbd a9d7 c83c
000003e0: 530f 333b aa60 93bb c896 0dbd 9fe7 b83c
000003f0: 6014 8fbd 5ef2 a4bd 742b 09bd 6383 7c3b
0.014775901 -0.053912513 -0.05444494 0.024870511 -0.008423166 -0.073621705 0.013185072 -0.029104847
0.016545016 -0.046224203 0.020849157 0.014331716 -0.017117828 -0.013981625 0.033979945 -0.005401754
0.032066897 -0.03435644 -0.014531118 -0.0643355 -0.04491024 -0.051366445 -0.029668476 -0.008026607
-0.058438014 -0.023471883 0.038365714 0.03362552 -0.04331357 -0.026708815 -0.081578456 0.015795134
0.02442184 -0.020301132 0.0051615653 0.00463377 -0.046934478 0.013786111 0.041782487 -0.048941508
0.06397757 0.0116890045 -0.030653786 -0.058476098 -0.06713383 -0.070602275 -0.012720776 -0.03379839
-0.06378776 -0.04050868 -0.028794998 0.035304256 -0.021417813 -0.057441007 0.04046861 0.0008861878
0.018783424 -0.0021303114 0.03269819 0.053000864 0.043660577 -0.059266 -0.049594276 -0.07362213
0.0104006175 -0.016749864 -0.02736535 -0.043119967 -0.007109359 0.0007328728 0.033737134 0.02905332
0.035985224 -0.05285575 -0.033567525 0.016502863 -0.03965268 -0.024071284 -0.07833943 -0.03434585
0.03041988 0.01252081 -0.05073548 -0.06994513 -0.036714263 -0.017794468 0.004117039 0.038887154
-0.082292385 0.083279714 -0.08253766 0.031945117 -0.030480584 -0.04285701 0.007613252 -0.0048857937
-0.026500056 -0.035685703 0.020017434 -0.0076892595 0.03225563 0.013020704 0.028452344 0.023724074
0.02195875 -0.046995044 0.02898047 -0.054858346 0.012761542 -0.027809728 0.023552086 -0.0031309256
-0.050162543 0.025878398 -0.07248193 -0.06172257 -0.037835095 0.07383064 -0.006376439 -0.005634666
0.01269104 0.027242908 -0.08211672 -0.010828146 -0.037744503 -0.0408597 0.05150561 0.000579706
-0.043414913 -0.01681301 -0.07876959 -0.0676444 0.035013713 -0.020932306 0.023268785 -0.011684485
-0.059600584 -0.04466745 0.014254492 -0.00017691667 -0.029902348 0.03081832 -0.0047440296 0.029635083
0.026709998 0.043040246 -0.03515753 0.03209726 0.027583053 -0.032659862 -0.059757795 0.013112732
-0.03587758 0.03703033 0.012614488 0.034743432 -0.0012397149 0.011202103 -0.07112875 -0.011212811
0.033150386 -0.06293683 -0.048153352 0.0023814025 -0.041809835 -0.010291036 -0.015070954 0.014295736
0.040296514 0.019495498 -0.00963751 -0.0009417484 -0.059549045 -0.00035247902 0.028148038 -0.030907951
-0.07392683 -0.027432157 -0.035703555 0.018296707 0.028854724 0.05251577 0.044973098 -0.040764727
0.019221656 -0.035937775 -0.03701251 -0.060122173 0.025938846 -0.047265843 0.042924315 -0.04946795
-0.065634936 -0.03561155 -0.0293915 -0.014270385 0.03130794 -0.0053545833 0.029488534 0.0078016864
-0.0020477697 -0.040797677 -0.026690204 0.008530908 -0.0036600241 0.013848837 0.006032614 0.03225348
-0.021355977 -0.064183764 -0.018979723 -0.027388977 0.025024455 -0.032186214 0.024401769 -0.073779956
-0.0389192 -0.01852147 -0.028495437 -0.03217701 0.045806978 0.021676397 -0.020673826 -0.053890083
0.012403527 0.0069123013 0.004232853 -0.0346065 0.021227885 0.01515727 0.050256476 0.021414204
0.026451303 0.016560486 0.028559899 -0.06131791 -0.07037761 -0.0009167973 -0.0032812632 -0.029757261
-0.045286626 0.045751672 -0.0077650975 0.007832348 -0.086500734 0.020064754 -0.045945838 0.024516897
0.0027322366 -0.0044976072 -0.034567624 0.022571383 -0.06986308 -0.0805404 -0.033488706 0.003853046

net.2.bias f4 [256]
00000000: ea1a 61bd 43d9 aa3a 0efe 8dbd 3aee 2ebe
00000010: ed5b 2bbc 1998 993c 5c99 47bc 70ed b4bd
00000020: 4739 1c3e f3ab 033e 6629 a73c fe2f 093d
00000030: bab2 8f3c 844e ec3d 6c08 af3d 979d babd
00000040: 6090 b43b b21e 373e cd90 b5bd 69f2 2abd
00000050: 757f 14bd 7522 babc 4ee9 53bd 88f1 473d
00000060: 0833 a53c 4e71 cf3c 579f 5cbd dbea 72bd
00000070: 3d3b 603d 6487 81bd 3be2 9b3b a300 59bd
00000080: f6a6 1ebd 55b0 79bb 92ff 2d3d 4415 03bc
00000090: 834e 51bd 2a8c 47bd fadc 3fbd dacb a03c
000000a0: d5f4 5ebe dfcf 163d 338b 1cbe 9b72 923d
000000b0: e82e 073b 80ca 83bd a327 73bc d757 203c
000000c0: 32e2 70bd b3c7 4cbd cf0a 84bc e51d cebd
000000d0: 35e2 913c e6ad 233c 7ab0 71bd 3784 443d
000000e0: bcc3 51bd 2bfc 22bd f979 1f3d 819b 353d
000000f0: 4c9b 363d 5ac4 bfbd 1372 d93c 56c2 283d
00000100: dc9c 4f3b 11f0 4dbd 728e f33b 56ae 09bd
00000110: bab5 043d 6570 993d 162b bebc e135 703d
00000120: 284d 69bd 5af1 733c 6809 623d 2f6c e4bc
00000130: 3826 303d be5d 2dbd 39f9 6bbd ee3a 81bd
00000140: 54bc 68bd d6b1 1cbe eed7 a53b ee50 9abc
00000150: 52c7 51bc 1697 babd 338b a8bd 1c27 8fbb
00000160: f152 6fba 91f1 183e 471d 68bc 6c74 553d
00000170: 53c5 18bd b158 84bd 5a83 78bb fb70 82bc
00000180: 14cb bc3c 2de3 9d3c 6c1a 87bb 2593 b0bb
00000190: ca80 693d 9740 0ebd 216a 99bd 84c1 913d
000001a0: 4b97 86bd 8a36 bc3c 7c90 51bd 5997 7a3c
000001b0: 0479 04bd 49de 7f3b e4f0 85bc cd20 eebc
000001c0: 7e3c 6abd 5635 733d df23 ba3c c4e7 57bd
000001d0: 052d 033c fd98 80bd e5e9 30be 9a22 3e3e
000001e0: 3063 50bd 7e50 a1bc eb22 00bd 1425 8bbc
000001f0: b2a2 063d c705 6e3b 45dc 48bd bbef 53bc
00000200: 3ce6 aa3c 7dab 413e e3d1 183d a9e0 c7bd
00000210: 9235 60bc 70ac 3cbd 9fbf 06bd 1b83 1fbd
00000220: 77f5 dc3d e0b0 aabc 121c 14bd 5c95 a2bd
00000230: 8dd9 5abd 8db3 c03d 4e1e 59be ff50 44bd
00000240: 8cf9 87bd 1e97 4a3d 2aec 8e3c 1a54 ec3d
00000250: 7ea7 513c 6625 71bc 9fef 16bc 43b6 c2bb
00000260: f2a4 0ebd 7687 97bd a371 193e 84ef 203d
00000270: ce9d 253d 84c3 cbbc a080 1c3c ee93 24bc
00000280: e5af 493d f69b 26bd 10b3 1f3d 6756 61bb
00000290: 1bc9 f03d 1b7f a43d b538 a53d 4c93 c43c
000002a0: 3e5f 12bd 57f7 0c3d d0a7 dfbc e4df b6bd
000002b0: ea96 9a3c a3d7 933a cc6b 423c fdc0 cebd
000002c0: bee5 26bc 437b 9dbd c5cb 14be cca2 9c3d
000002d0: 0f66 0cbd 9fec 243e 1695 97bd 47c0 6dbd
000002e0: 645f 7d3d df0b 0fbe b259 e3bd 376c 083d
000002f0: 84cb a6bd 0c7f a63d 46b8 793d b0bb ca3c
00000300: 1ef6 99bc 603f 0ebd 822e 79bd 315b ff3c
00000310: 193a d73c ed47 85bd 82dd 4fbd 63c0 e1bd
00000320: f899 4dbd f0f4 a3bd a816 60bd e439 9abc
00000330: 7458 bb3c 2882 14bc 2306 65bd a457 5bbd
00000340: dc0a bebb d4ff 2abd cb29 06bd 780d 673d
00000350: 1748 9ebd 52b0 913c 9565 a13c ef5a 25bc
00000360: 0a2d bc3c 33b1 723d 9120 40bd 8959 a83d
00000370: 5904 30bd 82b1 5dbd 1894 933c 7af1 abbd
00000380: 0c8c 52bc c23b ba3c 0c6c b33d 7b08 c63c
00000390: 74ac 7ebb 9c20 a7bc 5634 493b 43b5 973c
000003a0: b021 26be b865 0fbd 6255 ef3c 366d 3a3c
000003b0: ae95 343d 0cae 8abc 1ffe 983b 6e97 953c
000003c0: 7a60 c5bd ab6c e13c 68a1 7bbd a5ea 1e3d
000003d0: 0564 71bc 63bc 48ba 7ec3 303c ec3c e8bc
000003e0: a3ae cb3d a452 e23c 69b1 093e fef4 8bbd
000003f0: 26a8 10bd bb8c 1e3e 7411 cc3d 5df1 103d
-0.054957308 0.001303472 -0.06933223 -0.17083064 -0.0104589285 0.018749284 -0.01218256 -0.0883435
0.15256225 0.12858562 0.020405483 0.033493035 0.017541278 0.11538413 0.08546528 -0.09112089
0.005510375 0.17882803 -0.08865509 -0.041735087 -0.036254365 -0.022721509 -0.05173617 0.048814327
0.020165935 0.025322583 -0.053862896 -0.059306007 0.054743994 -0.06324652 0.0047571934 -0.052979123
-0.038733445 -0.0038099487 0.04248006 -0.008000676 -0.051100265 -0.048717655 -0.0468416 0.019628454
-0.21773084 0.036819335 -0.15287475 0.071507655 0.0020627324 -0.06435108 -0.014840993 0.009786568
-0.058809467 -0.049995136 -0.016118435 -0.10064296 0.01780806 0.009990191 -0.05900619 0.047977652
-0.051212057 -0.039791267 0.03893468 0.044337753 0.044581696 -0.09363623 0.026543653 0.04120096
0.0031679189 -0.050277773 0.0074327523 -0.033613525 0.03239987 0.07492141 -0.023213904 0.058645133
-0.056958348 0.014889086 0.05518475 -0.027883617 0.0430052 -0.042325728 -0.057610724 -0.06310068
-0.05682023 -0.15302214 0.005061141 -0.018837418 -0.012803869 -0.091108486 -0.08229675 -0.004368676
-0.00091294857 0.149359 -0.0141671365 0.05211298 -0.037297558 -0.06462229 -0.0037920089 -0.015923014
0.023046054 0.019273365 -0.004123023 -0.0053886347 0.05700759 -0.034729566 -0.074909456 0.07116988
-0.065718256 0.022975225 -0.05116318 0.015294873 -0.032341972 0.0039042404 -0.016350217 -0.029068375
-0.057186596 0.059377037 0.022722183 -0.052711263 0.008006339 -0.0627918 -0.17276724 0.18567887
-0.050875843 -0.019691702 -0.0312833 -0.016985454 0.032870002 0.0036319362 -0.04903819 -0.012935574
0.020861737 0.18913074 0.03730954 -0.097596474 -0.013684647 -0.046062887 -0.032897588 -0.03894339
0.10789006 -0.020836294 -0.036159582 -0.07938644 -0.05343013 0.094092466 -0.21202967 -0.047928806
-0.06639394 0.049460523 0.017446596 0.115394786 0.012796281 -0.014718389 -0.009212404 -0.0059421374
-0.034825273 -0.07398884 0.14984755 0.03929092 0.040433697 -0.024873503 0.009552151 -0.010045035
0.04924001 -0.04067608 0.038989127 -0.0034383775 0.11757108 0.08032056 0.08067457 0.023996018
-0.03573536 0.03441557 -0.027301699 -0.089294225 0.01887079 0.0011279475 0.011866521 -0.10095403
-0.010186611 -0.07689526 -0.14530857 0.076482385 -0.03427702 0.16105889 -0.07401483 -0.058044698
0.06185855 -0.13969372 -0.111010924 0.033306327 -0.08144286 0.08129701 0.060966752 0.0247477
-0.018794116 -0.034728408 -0.06083537 0.031171413 0.02627282 -0.065078594 -0.050748356 -0.11023023
-0.050195664 -0.080057025 -0.054709107 -0.018826433 0.022869326 -0.009064235 -0.055914056 -0.053550377
-0.0057996344 -0.041747883 -0.0327547 0.05640933 -0.07728594 0.017784271 0.019701758 -0.010092481
0.022970695 0.05925102 -0.046906058 0.082202025 -0.042972896 -0.054124363 0.018014953 -0.083956674
-0.012850773 0.022733573 0.08760843 0.024173966 -0.0038860114 -0.020401292 0.003070136 0.01851905
-0.16223788 -0.035009116 0.029215518 0.011378577 0.04408806 -0.016928695 0.0046689655 0.018260684
-0.09637542 0.027517637 -0.061433226 0.038797993 -0.014733319 -0.00076574663 0.0107887965 -0.028349362
0.09945419 0.027627297 0.13446583 -0.06833838 -0.03531661 0.15483372 0.099642664 0.035386432

net.4.weight f4 [256, 256]
00000000: bc5e 293d 18fa 22bc 7129 60bc a5ec 5dbd
00000010: a916 2bbd fa06 78bd 4693 23bd d235 ddbc
00000020: 7456 1dbd 2788 283d aec4 293b 52fe 0bbd
00000030: 3057 cbbc b2b7 3cbd 880a 413c 70fe 34bd
00000040: 5489 abbc 3e51 00bd 40cd 743b 42bc 79bd
00000050: c880 393d 2f6e 0a3d 3078 abbc f01b 99bc
00000060: 4b23 283d 15cf 6dbd d488 85bc 7889 07bc
00000070: 521f 4d3d 0f16 61bc 2643 733d 4b64 30bd
00000080: 9f03 71bd a65f 81bd 2489 4d3d d863 3bbd
00000090: 8e35 68bd 24ad 3f3d fcbb adbc 33cc c43c
000000a0: ba94 7d3d a6cb cebc 9090 7f3c 6a5c 22bd
000000b0: 63f8 1c3d cda5 88bc 9c58 ad3c 23b8 4dbd
000000c0: 0775 36bd ea28 6bbd 2241 85bd f0bd f23c
000000d0: cea2 2b3d a631 493d 7e3f 483d 8464 6bbd
000000e0: 6800 6b3d 7a24 71bc 58c7 78bd 078c 003d
000000f0: bb1e 9bbc 76c0 1cbd d809 30bc ea6b 4e3d
00000100: 805e 783c 04f0 ed3c 280c 46bd 00c0 80b7
00000110: 6021 573c db63 50bd 87bc 25bc b6b5 51bd
00000120: b09c 7dbd 21e7 62bd 1ca5 bfbc b284 22bd
00000130: 6c6b 413d 54f3 dbbc a80a f03c 550c 67bc
00000140: c09e 883a 16af f63b 76ff 4a3d 1e68 393d
00000150: d09d 02bd 64d3 1dbd 1f67 f63c f370 87bd
00000160: 802c 46bd 3aa4 9cbd 8017 8b3a 6bd1 8c3b
00000170: 1ecb 32bd b250 4bbd bddf 53bd 481f 44bd
00000180: 4c83 f5bc 48e7 2bbd 30e1 e33c 90b9 fe3c
00000190: 37a5 56bc 1799 5d3d 2211 bebc 7b42 af3c
000001a0: d07c 133c 34ba 4e3c ab7b de3c a839 0dbc
000001b0: 7da0 4cbd cfd7 8f3c 80ab 65bc ba5b 00bd
000001c0: eeea 173d cac8 3ebd bc40 81bc 7a6b 033d
000001d0: e974 6a3c 70bd b63c 78c9 96bc e3c6 06bc
000001e0: 590b 5f3d d09a 0c3c a840 0a3d 84ff 8cbc
000001f0: 00bb 223c dc5a 573d 584d d53c bc29 49bd
00000200: bc7d ef3b 8235 83bd 1a85 5e3d 0424 6bbd
00000210: 80e7 5f3c 34b9 d93c ee6c 56bd 67dc 82bd
00000220: b9e3 3b3d 408c f23b 72b7 11bd 6a32 cb3b
00000230: 2512 01bd 2fcb 91bd f4f9 903c b42f 2b3d
00000240: 67b7 0e3d 6729 183d 5eb9 693d c0da 613d
00000250: 975a 813a 14f3 75bd 94a6 d7bc 424e 003d
00000260: c845 6d3d d086 173d 39f3 433c 4858 013d
00000270: b076 be3b 0c8a 36bd a797 93bd 28ab 39bc
00000280: 874b 85bd 808b 45bb c5e9 78bd ccf3 01bd
00000290: 741d 6ebd 8f37 283d e8ce 233d 4963 85bd
000002a0: 60fc 8dbc 3a3d 5abd 80ae 1b3c 46cc 2cbd
000002b0: abf0 67bd aee0 7fbd 200d 42bc 0699 07bd
000002c0: 9080 733c 15ef 1ebd 7cb0 16bd ca99 893c
000002d0: 8e5f 66bc a89f 0a3d d815 c93c 8fcb dd3c
000002e0: c121 e8bb 969d 96bd 00b9 e43a 04e6 463d
000002f0: 6665 1a3d ba2a 26bd e147 47bd 103d 813c
00000300: b979 753d aaf1 123d d67c 723d 7735 e9bc
00000310: 9fa2 273d cedc 1ebd 8c8b 713d c0dd 883a
00000320: 8f27 833c dedf 9ebb 4d6e 47bd 3833 3c3c
00000330: 84f8 033d da46 fdbc ec18 dd3c 2403 7d3d
00000340: f10e f53c 9e13 2bbd 405b c4bc 55db 573d
00000350: 85c2 87bd 7406 243c 5c8c 07bd 575a 65bc
00000360: 49ae ef3c ac6b 9dbc 7198 383d dbfd b43c
00000370: ac07 6b3c c579 073d a4a6 4c3d 8238 513d
00000380: c86e 013c 791d 373d 90b9 3a3c 60d7 0a3c
00000390: 40b5 9dbb 07cc 383c 254b 8dbd ad10 14bd
000003a0: d03d 8c3b ae75 123d 3adf 083d 42e0 7b3d
000003b0: b7de 09bc 446b 1abd 144a 5dbd d88d 8bbc
000003c0: e686 82bd fee6 143d 7841 1ebc 0cee e8bc
000003d0: 4dd9 ff3c 083a 963c c0de d6ba c009 4d3c
000003e0: a2b4 50bd 0c7a 453d be35 ddbc 5d69 473d
000003f0: c092 2bbd 190e fdbc 9ac4 2e3c 1690 7f3c
0.04135011 -0.009947322 -0.013681755 -0.05418076 -0.041769657 -0.06055353 -0.039935373 -0.027003203
-0.038412526 0.04114547 0.0025904584 -0.034178086 -0.024821848 -0.046073623 0.011782296 -0.044187963
-0.020939507 -0.03132748 0.0037353784 -0.060970552 0.04528883 0.033796486 -0.020931333 -0.01869008
0.041049283 -0.058058817 -0.016300596 -0.008272521 0.050078698 -0.013738169 0.05939021 -0.043064397
-0.058841344 -0.063170716 0.050179616 -0.045749515 -0.0566917 0.04679598 -0.021207802 0.024023151
0.061909415 -0.025243592 0.015598431 -0.039638914 0.038322818 -0.016680622 0.021160416 -0.050224435
-0.0445452 -0.057412066 -0.06506564 0.029631585 0.04190331 0.049119614 0.048888676 -0.057468906
0.057373434 -0.014718169 -0.060736984 0.03138354 -0.018935552 -0.038269483 -0.010744534 0.050395884
0.015159249 0.029045112 -0.048351437 -1.5348196e-05 0.013130516 -0.05087648 -0.010115749 -0.051198684
-0.061917007 -0.055396203 -0.02339416 -0.03967733 0.047221586 -0.026849426 0.029301956 -0.014102061
0.0010423288 0.007528196 0.049560033 0.04526531 -0.031888783 -0.038531676 0.030078469 -0.0661334
-0.048382282 -0.07648511 0.0010611862 0.0042974255 -0.04365074 -0.049637504 -0.051727045 -0.047881395
-0.029969834 -0.041968614 0.027817339 0.031094342 -0.013100914 0.054101076 -0.023201529 0.021394005
0.009001926 0.0126176365 0.027158579 -0.008619703 -0.04995774 0.01755896 -0.01401794 -0.031337477
0.03708928 -0.046578206 -0.015777938 0.03208492 0.0143101 0.022307128 -0.018406615 -0.008226129
0.05445418 0.008581832 0.033753067 -0.017211683 0.00993228 0.052576885 0.026037857 -0.049112067
0.00730869 -0.0640669 0.054326154 -0.057407394 0.013666034 0.02657757 -0.052349977 -0.06389695
0.04587147 0.007401973 -0.035575338 0.006201078 -0.031511445 -0.07118832 0.017697312 0.04179354
0.034842875 0.03714886 0.057061546 0.055140257 0.0009868917 -0.06004627 -0.026324548 0.031324632
0.057927877 0.0369938 0.011959844 0.031578332 0.0058124885 -0.044565246 -0.0720666 -0.011332311
-0.06508546 -0.0030142963 -0.060769815 -0.031726643 -0.058133557 0.04106861 0.039992243 -0.06513078
-0.017332256 -0.053281046 0.009502053 -0.042186998 -0.056626003 -0.06247013 -0.01184395 -0.03310492
0.014862195 -0.038802225 -0.036789402 0.016796965 -0.014060868 0.033843666 0.024546549 0.027074603
-0.007084102 -0.07354276 0.0017450154 0.048559204 0.037694357 -0.04056809 -0.048652533 0.015776187
0.059930537 0.035875 0.059201084 -0.028467877 0.040926572 -0.038784795 0.058970973 0.0010442063
0.016010074 -0.0048484644 -0.048689175 0.011486821 0.032219425 -0.030917574 0.026989423 0.061770573
0.029914351 -0.041766755 -0.023969293 0.052699406 -0.066288985 0.010011304 -0.03309284 -0.0139985895
0.02925791 -0.019216381 0.045067254 0.022093704 0.014345091 0.033075113 0.04996361 0.05107928
0.007899947 0.04470584 0.011396781 0.008474201 -0.0048128664 0.011279113 -0.06899098 -0.036148716
0.0042798296 0.03575676 0.03341601 0.061493166 -0.008414916 -0.037699953 -0.054025725 -0.01703541
-0.06373386 0.036353104 -0.009659164 -0.028433822 0.031231547 0.018338218 -0.0016393289 0.012514532
-0.050953515 0.048212096 -0.027003165 0.048684467 -0.041888 -0.030890511 0.010666991 0.015598318

net.4.bias f4 [256]
00000000: 2506 4bbd 0191 893e b582 37bd cf12 cabc
00000010: 8e49 5c3e 8167 3e3d bf41 31bd bd3a a33d
00000020: 918b 87bb eb03 e23d 797e 423c 6791 1ebd
00000030: 2f07 3ebb 7459 2dbc 2ebb ba3c 63da 4abb
00000040: fdf1 c63b 9d09 89bd f395 fb3d 26f8 9abb
00000050: 05c3 33bd 39cf 03bd 7840 1d3d e903 10bd
00000060: 157f 2dba 6239 5dbd 6da1 f23b acdb 4d3c
00000070: 5d50 823e ad7d 58bb a30d 45bd 4a16 633e
00000080: a505 863c 5a8e 65be bf57 0d3d 4cca 8e3c
00000090: 276e b43d d15f 32bd c8b1 6e3d edd5 69bd
000000a0: 70bd 1fbd a1b2 f83d e2f3 70bd 8f5b 86bd
000000b0: b327 f8bc b417 42bd 52c9 43bc 3bdc 0b3d
000000c0: 6f85 a4bd 851d bf3d 8db9 a9bc b6b2 30bc
000000d0: 1945 053e fa8f 8dbd 92cd babc 09cd 61bd
000000e0: 517c c83c e930 e3bb 3b0e 91bd 45db b43c
000000f0: 096a 9abd dcf6 53bc 99be 0f3d 531d a13e
00000100: 723f 9a3e 0b51 d3bc fb72 89bd 6916 1e3d
00000110: f726 acbd 7e24 733d 37f2 3fbe c6a8 82be
00000120: ea5f 713e 9c75 20bc 9b63 9ebc dbde faba
00000130: 4e16 48bd b7a2 013e 20bc 8e3e cb89 403b
00000140: c9de 3cbd 97bd f43c dbb3 863b 6f36 52bc
00000150: c300 3abd 0988 74bd 7afb 933e cfff c33d
00000160: f204 493d 7f11 6e3d a84f 83bd 3f40 613e
00000170: 2712 873e 6ad9 c03c 8ebf 4c3d 6504 41bd
00000180: 5210 79bd 3a38 603d c7ab 643c 10d8 8f3d
00000190: 5212 1ebd d059 84bd 0374 04be a035 99bc
000001a0: 0010 f6bc 378f bd3d 09ab 2dbd 2ea0 8e3c
000001b0: 92f3 213d 9bcc 303d 9768 87bd 19c2 693d
000001c0: f810 b4bc 58f0 653d 8fe6 c03c ce9c 1a3d
000001d0: 036f a8bb 0b58 d6bc 8481 a33e e48c b43b
000001e0: 07d0 0dbd 1058 a33c b539 b3bc 3ca3 e33c
000001f0: 5a43 bb3c be11 0d3e 34b2 543d ed58 873c
00000200: ed45 a73c 82a9 9f3e 67d0 cf3b 19f6 7cbd
00000210: 5f28 87bc 4565 d53c 9eef a2bd 2b66 00bc
00000220: c260 1fbc d9a1 f6bc 654b 05bd cb80 a3bc
00000230: a8cf 3ebd b3d8 9cbc ec09 a6bd 7b73 e23b
00000240: 6589 6c3d bedb 25bd 0189 063e 7693 8cbc
00000250: a08c b4bd 5966 5fbd fc84 47bd 2401 aabc
00000260: 53ce 6c3d 5456 f23d 55c4 4b3e 30dc 993d
00000270: 5553 fcbc df93 323e 3ed1 243d 273c 673d
00000280: 9b47 373d fcde 873d aaf6 e13d 7ffa 9e3c
00000290: 8284 09bd a42c bc3c 9428 9e3c 1e19 babc
000002a0: 21f0 4b3d 5ec0 d43b 747c 1bbd a560 9fbc
000002b0: 4017 f3bb a38a 0d3d 50b8 3dbd 49ff 2ebc
000002c0: 6a20 b13a 6bd7 61bd 0b5a 7dbc a5c4 753c
000002d0: 2540 e3bc e4cf e0ba b157 05bd 03f8 8fbd
000002e0: 0edf 05bc a6c1 86bd b423 3b3d 9bb8 de3b
000002f0: c394 283d 308d 553d d488 643c 6b35 b3bd
00000300: 6aa7 283e 480b 9c3d 5646 18bc c47a 53ba
00000310: 7006 c53d e4f8 4e3e 1f57 0d3d 9f69 943a
00000320: 8550 85bd 94ac 873e 7eb9 60bd a18b 5ebc
00000330: 336b c3bc 4b5d 433d 6a5b a2bd 35f3 b0bd
00000340: cd5e bb3b 23bb 8fbd 3f64 4fbd afbb cc3d
00000350: bb46 fe3d e79c 613e d1c2 75bd abeb 423c
00000360: 3de1 e43d 8fd5 9a3e 17c0 febc 92f6 283d
00000370: 4197 bf3c ea32 6fbe 7923 563d b776 423e
00000380: 875c 05bd 2a6f 273a 3f0d 99bd 0077 2fbd
00000390: 38d2 2abd c235 b03b e3a8 abbc fa34 25bc
000003a0: 5941 043d 0e70 4dbd 1fd7 093d b933 37bd
000003b0: 663c 36bd efc8 253d 7bfa aa3c 723a 12bd
000003c0: 86b5 ff3c a188 643d b4da 7cbd f3fb 28bd
000003d0: 840e 00bc 3252 833d 47c8 95bd b949 823e
000003e0: 7195 3a3e 4818 433c 5928 113d 696e b0bc
000003f0: 5c4f 873c e88d 973d bbb3 503c 7ab0 06bd
-0.049566407 0.26868442 -0.044802386 -0.024667172 0.21512434 0.046485428 -0.04327559 0.07970188
-0.0041365107 0.110359035 0.011870974 -0.038712885 -0.002899598 -0.010580409 0.022794332 -0.0030952923
0.0060713277 -0.06691287 0.1228446 -0.0047292886 -0.043887157 -0.032180045 0.03839156 -0.03515998
-0.0006618363 -0.054009803 0.0074044974 0.012564581 0.25451937 -0.0033033893 -0.048108708 0.22176471
0.016360113 -0.22417584 0.03450751 0.017430447 0.088100724 -0.04354841 0.058275014 -0.05708878
-0.03899902 0.12143446 -0.058826335 -0.06560432 -0.030292368 -0.047385886 -0.011949854 0.034145575
-0.08033263 0.09331802 -0.02071836 -0.0107847955 0.1301464 -0.06912227 -0.022803102 -0.055127177
0.024473341 -0.006933321 -0.07082792 0.022077212 -0.07539756 -0.012937274 0.035093877 0.31467685
0.3012653 -0.02579548 -0.06711384 0.03859559 -0.084058695 0.059360974 -0.18744741 -0.2551939
0.23571745 -0.009793665 -0.019334605 -0.0019139902 -0.048849396 0.12659727 0.27877903 0.0029379006
-0.046110902 0.02987556 0.004110796 -0.012830361 -0.045410883 -0.059700046 0.289028 0.09570276
0.04907698 0.058122154 -0.064116776 0.21997164 0.26381037 0.023541171 0.04998737 -0.04712333
-0.06080658 0.05474112 0.013956971 0.070236325 -0.03859169 -0.06462443 -0.1293488 -0.018702328
-0.030036926 0.09255832 -0.04239944 0.017410364 0.039538927 0.043163877 -0.06611746 0.05706987
-0.021980748 0.056137413 0.023547439 0.037747197 -0.0051401868 -0.026165029 0.3193475 0.0055099595
-0.03462222 0.019939452 -0.021878103 0.027787797 0.022859264 0.137763 0.05192776 0.016521895
0.020419085 0.31184012 0.006341982 -0.061758135 -0.016498743 0.026049266 -0.079558596 -0.007836859
-0.009727659 -0.030106472 -0.032542605 -0.019958874 -0.046584755 -0.019146299 -0.08107361 0.006910739
0.057748217 -0.040492766 0.131382 -0.017160159 -0.088158846 -0.054540966 -0.04871081 -0.020752497
0.057813954 0.11832872 0.19899113 0.075127006 -0.030801455 0.17439221 0.04023861 0.05645385
0.044746023 0.06634328 0.110333756 0.019406555 -0.033573635 0.022970505 0.019306459 -0.022717055
0.04978955 0.0064926585 -0.037960485 -0.019455263 -0.007418543 0.034556042 -0.046318352 -0.010680982
0.0013513688 -0.05513708 -0.015463362 0.015000497 -0.027740547 -0.00171518 -0.032554332 -0.07029726
-0.008170856 -0.06579904 0.045688346 0.006796909 0.041157495 0.0521366 0.013948638 -0.08750423
0.16470113 0.07619339 -0.009294113 -0.0008067305 0.096203685 0.20212132 0.034506913 0.0011322981
-0.065094985 0.26498854 -0.0548644 -0.013583095 -0.023854828 0.047696393 -0.07927592 -0.08640138
0.0057180882 -0.07018115 -0.05063271 0.09996735 0.124158345 0.2203251 -0.060000245 0.011897008
0.11175773 0.30241057 -0.031097455 0.041250773 0.023387553 -0.23359266 0.052279923 0.18990599
-0.032558944 0.0006387109 -0.074732296 -0.042838097 -0.041704386 0.005377502 -0.020954555 -0.010083431
0.032288883 -0.05015569 0.03365242 -0.04472706 -0.044491194 0.04047483 0.020871392 -0.03570027
0.031214487 0.055794362 -0.06173201 -0.041255902 -0.007815961 0.06412162 -0.073135905 0.2544687
0.1822107 0.011907645 0.03543887 -0.021537023 0.016517334 0.07400113 0.012738164 -0.032883145

net.6.weight f4 [1, 256]
00000000: d524 db3c 458d 4c3e 076b ffbc 7fa9 a7bc
00000010: a4fb 6b3e 33a2 c3be 0a9c 863a 40b2 cebe
00000020: 37aa 723e 98f1 ea3e c9cd c53e d0dd edbc
00000030: 0be4 aa3a 98ac 6a3b 04fd babe a74f 033e
00000040: 3e7a 28bd 3344 71bc b1d7 a43e 1ef9 abbe
00000050: 3137 863c e3e0 203d e029 a03b abd4 5fbd
00000060: e77b 34bd b389 efbe 0250 d8bc bdeb b7be
00000070: 8110 1b3f 4ef9 66bc b3c4 36bc 8214 123f
00000080: f000 0a3d fa6a 89be 65e7 793d 6d6a 813e
00000090: 5804 233e 846b 983c a91f 6e3e f7c2 02be
000000a0: 9170 f2be 6e60 4e3e 54bd 593d 4a27 673d
000000b0: ba58 a7bd 5c3b a43c 0ab1 323c 939f d53c
000000c0: b709 e83c ee47 c0be b682 233d 440d 17bc
000000d0: 3d41 c93e 9e1a ecbc 7eb2 4cbc 78c5 0e3c
000000e0: bceb d4be b419 ffbc 53e8 b9bc 6998 5a3b
000000f0: 5ca3 2fbb 981d 00bc 66b4 d13e e9e5 503e
00000100: 23b8 4e3e 3794 44bd 77fe 07bd ef2c ecbc
00000110: 4ca5 3e3c 49e8 6d3d 9e75 c4be ef04 92be
00000120: 5352 393f 0262 313d 06b1 4e3b e772 35bc
00000130: 7b88 1f3c c4aa cc3e ad6a 683e eedc 82bc
00000140: 04bf 00bc 619e 0abd e828 c9be 1b6c feba
00000150: 46ef 653d a628 2abd 1596 3c3e ec30 8f3e
00000160: 96be 95be 2f02 92be 1078 2f3c b753 1f3f
00000170: 7009 0f3f 9f61 743d f1dd 7c3d c4ba 4dbd
00000180: 18dd 57bd 356d 69bd 76bb 1ebb c367 793e
00000190: 9921 843d 408c f1bb d13b 76be 9fa3 bcbc
000001a0: 0327 673d cede c5be b3cb acba 6e26 c1be
000001b0: 6163 7c3e 1245 dfbe 8814 923b 2b94 643e
000001c0: 3dd1 bebe e8b9 ad3e 3801 4dbc 976d 2f3d
000001d0: f001 04bc 9fbf 803e c3af 153f edd8 eebb
000001e0: 646a 203d 620f 21bd ba79 89be 6c0a b0be
000001f0: 9e3f be3e 329a 073f 04c2 d0be 57ba c73e
00000200: 4540 543e ac5f 503e cd28 c43c b1d5 513d
00000210: ac43 5d3e e71f 2f3a dc5a 06bc 54f3 82be
00000220: 50e6 ef3b 386c 6e3c 96a5 59bb ed80 3cbf
00000230: b720 aa3c 41d9 d4bc e400 c3bb 4548 f4bc
00000240: 55a9 d6be 0675 f4bc ad7c 163f c91c a4bb
00000250: 2dde 903d 5b0f 0d3d 4412 cbbc 0832 d33c
00000260: 056e b73e 9038 573e 1643 243f d1f0 573e
00000270: 3101 2d3d c1d2 113f a770 173d fc20 8e3e
00000280: 863a 583e 3255 aebe 4ee3 0a3f af4b 5bbc
00000290: 7ce4 333e 1e12 bd3e fee8 d3be 411b 763b
000002a0: f855 dcbe 654c 57bd c154 42bd 541f f3bb
000002b0: 36e7 62bd 2478 58bc b6fc 243d e47c 903e
000002c0: 7f08 11bc 84ee e3bc 0005 f4ba b91e dbbb
000002d0: ffaf ba3b 3611 5b3b d150 6c3e 2115 a9bc
000002e0: 2256 673d cb35 413c 2310 fd3e c992 883c
000002f0: 6d7a 923b 27c5 873e cd79 6d3e ad84 d73d
00000300: 0492 2f3f 05ed 723e c927 0dbc e850 c1be
00000310: ba12 653e b092 883e 8252 103f ccb3 3dbd
00000320: c9c5 59bc c38f 443f 0d54 243c 74ea bebd
00000330: f35d f93c b41a f6bb ab5f 09bd 7549 c4bc
00000340: 3f99 18bd 8469 c13c a3d2 273d 4be9 93be
00000350: bd7a ae3e 837d 4c3e c1ad 50bf 5a72 b63c
00000360: 1344 203f dbed 543e 7871 bdbc 4643 a83e
00000370: 3d6b 883e ef93 88bd 1aa3 4b3e 0b82 493e
00000380: dacb 2fbd 09e3 ca3c ff16 3d3d d4ca 2b3b
00000390: fc60 44bd 3237 eb3d c490 b23d 82f9 223d
000003a0: c5fe bdbc f2bd 82bc 1cbf 203f e6ec 90bc
000003b0: c02b 7fbc 3d29 a5bb c553 bcbe d336 5439
000003c0: f315 48bc 79e1 dabe 51c1 dbbc 0d63 213e
000003d0: 2c8c f7bc bbe7 703e 9bb0 d7bd 65b9 463f
000003e0: 471f 1d3e 95f8 483d ec35 03bd 348a a6ba
000003f0: 953f 803e 39eb af3e 2a3e 5d3e 056a 0b3c
0.026750961 0.19975765 -0.031178964 -0.020466564 0.23045212 -0.38209686 0.0010269892 -0.4037037
0.23697744 0.45887446 0.38633564 -0.029036433 0.0013037933 0.003580844 -0.3652116 0.12823354
-0.041132204 -0.014725733 0.3219581 -0.335885 0.01638374 0.03927697 0.0048878044 -0.054646175
-0.044063475 -0.46784744 -0.026405338 -0.35922042 0.6057206 -0.014097525 -0.011155295 0.5706254
0.0336923 -0.2683943 0.06101169 0.2527651 0.15919626 0.018605955 0.23254265 -0.12769686
-0.47351506 0.20153973 0.053159073 0.056433953 -0.0817122 0.020047836 0.010906467 0.026077067
0.028324945 -0.37554878 0.039919578 -0.009219471 0.39307585 -0.028821286 -0.012493728 0.008714072
-0.415861 -0.031140186 -0.022693789 0.0033355004 -0.002680025 -0.007819556 0.40957946 0.20400204
0.2018743 -0.04799291 -0.03320166 -0.02883002 0.0116360895 0.058082853 -0.38370985 -0.2851939
0.7239124 0.04330636 0.003153862 -0.011074758 0.009737129 0.39974034 0.22696944 -0.015974488
-0.007858042 -0.03384245 -0.39289021 -0.001941088 0.056136392 -0.04154267 0.18416627 0.27967012
-0.29246968 -0.2851729 0.0107097775 0.62237114 0.55873775 0.05966341 0.061735097 -0.05022694
-0.052701086 -0.056988914 -0.0024220622 0.24355988 0.06451721 -0.0073714554 -0.24046256 -0.02302724
0.05643369 -0.3864655 -0.0013183266 -0.37724632 0.24647285 -0.43607384 0.004458014 0.22322147
-0.3726901 0.33930898 -0.012512498 0.042829122 -0.008057103 0.25146195 0.58471316 -0.007289043
0.039163962 -0.03932131 -0.26850682 -0.3438295 0.3715791 0.5296966 -0.40773022 0.39009354
0.20727642 0.20348996 0.023945237 0.051229183 0.21607846 0.0006680474 -0.0082003735 -0.2557627
0.0073211566 0.014552169 -0.003321027 -0.73634225 0.020767553 -0.025982501 -0.005951034 -0.029819617
-0.41926065 -0.029840957 0.5878399 -0.0050083143 0.07073627 0.034438472 -0.024788983 0.025780693
0.35826126 0.2101767 0.64164865 0.21087958 0.042237464 0.5696221 0.036972668 0.2775954
0.21116075 -0.34049374 0.5425309 -0.013384744 0.17567629 0.36927885 -0.41388696 0.0037552866
-0.4303434 -0.05256309 -0.04744411 -0.007419506 -0.05539628 -0.0132122375 0.040280066 0.28220284
-0.008852123 -0.027823694 -0.0018617213 -0.006687012 0.00569725 0.0033427007 0.23077704 -0.020639958
0.056478627 0.01179261 0.49426374 0.016671555 0.0044701607 0.26517603 0.23190995 0.10523353
0.6858218 0.23723228 -0.008615443 -0.3775704 0.22370425 0.26674414 0.56375897 -0.046314046
-0.013291785 0.7678186 0.010029805 -0.09322062 0.030440306 -0.0075105075 -0.0335385 -0.023960808
-0.037255522 0.023609884 0.040972363 -0.28888926 0.34078017 0.19969754 -0.8151513 0.022271324
0.62603873 0.2079386 -0.023125395 0.32863826 0.26644316 -0.06668841 0.19886437 0.19678514
-0.042919017 0.024766462 0.04616451 0.0026213424 -0.047944054 0.11485137 0.08719018 0.03978873
-0.023192773 -0.015959714 0.6279161 -0.017691087 -0.015574396 -0.0050403164 -0.3678266 0.00020238319
-0.012212264 -0.42750147 -0.026825579 0.15760441 -0.030218206 0.23525898 -0.10531732 0.7762664
0.15343963 0.04906519 -0.032033846 -0.0012705983 0.2504851 0.34359148 0.21605745 0.008509164
